parameters/VDN/49000/agent_influent_flowrate_params.pt (torch, 106452 bytes, 8 tensors)

fc1.weight f4 [64, 6]
00000000: e493 b0bd c7ed 2dbe 8209 e33c f0ba 75be
00000010: bbf0 90bb 3346 ba3e 6190 cd3e 8655 c9bc
00000020: b335 9f3e faaf 153e 2717 04be 8619 d8be
00000030: 5365 4abc efad a2be 53db 623e 1185 953e
00000040: dbfe 833d af61 283e 4e55 27be 5a29 10be
00000050: c7fa cabe 7346 763d f767 56be 17ba be3c
00000060: f6cc 3b3e 116a cabe d596 9d3d 4c7e 6f3e
00000070: 9b5c c73e 7358 1f3f 284c 683e 638d 67be
00000080: d96c 71be 75a0 ce3d 62fa b93e a4fd 59be
00000090: b0ee 3c3d 1284 eabe 19ae 613e b99f ff3d
000000a0: 8a8c 4e3e 2919 893d 028a e33d 3c52 d9be
000000b0: 12b0 3d3e b8c0 75be 3d60 a43e 9483 b93e
000000c0: 4375 ee3e 04a4 893e 5892 823e 1d65 92be
000000d0: 8b30 913d 9b84 5b3d aa3d ec3e 96b7 d43d
000000e0: 0535 da3d 7d73 e93c 84c8 18ba f983 833e
000000f0: 5545 993d 2d17 bc3e 74c4 bc3c b81f cebd
00000100: a552 febe 0e78 39be 4260 ae3e d030 573e
00000110: 13e0 c2be 2c79 81bc e7ff cd3d 302a a2be
00000120: d4e2 ffbd bfbd bcbe 6489 0d3e 0050 efbd
00000130: 86cf 2cbe 0605 a83e 7e40 7cbd e8c9 e3bc
00000140: 8b99 e4bc a117 c2be c6e6 e83e e75e f33e
00000150: 4143 033e 2ed1 19be 6e40 bf3d 192a 31be
00000160: 9bd6 dabe 7485 f63e a6e4 32be 0797 2d3e
00000170: 7f66 473e 743c 9abe bf3e bbbe 6655 17bd
00000180: ff8e b8be a4a8 333d 36c9 533e 1773 3f3e
00000190: d197 77bd fd03 913e 005e 9b3d 0777 6d3d
000001a0: 03e1 af3e daaa 863d 0f43 1a3e 8d70 2b3d
000001b0: 3de5 02be efd1 47be cddc ccbc 596b 0cbe
000001c0: 7680 cebe 799a ab3e bc67 31be d180 b13d
000001d0: b236 ba3d 30de 5cbe c347 2dbe 37e9 95be
000001e0: a13d c53d cf5a a5be 2661 7a3e 457c 243e
000001f0: 83f4 173f 1a84 babe 3f4d 68bd eb1f 603d
00000200: 5bb8 5c3e 495b 8ebe 0a1e 8f3d 32ed 993e
00000210: ad0b 933e 5dfb 7a3e 4166 3e3e b859 d33e
00000220: ef4d 633e c32c bcbe d29b 7a3d bf43 fa3e
00000230: 1ca2 0bbe 04a4 903e 3bf9 7a3e 97e3 92be
00000240: 7380 c9be 129d b93e 20b2 0abe 0376 973e
00000250: 67d6 b03e 0576 3b3d 960b 98be e168 bc3d
00000260: 3fc7 8b3e 40ec a4bd d473 72be 66bb b9be
00000270: 7f25 83be dd7e 7dbe 6096 113e 8054 4ebe
00000280: a38c ee3e ec9e b8bc 5529 e13e c875 de3e
00000290: bc7a 53be 6d09 abbe 0210 87be 0b5d 8b3e
000002a0: 5884 c6be b19f d53d 9ee9 253e 0b06 0bbe
000002b0: 31db 4dbd cef9 e13c 2c8b 9abe ae71 d3bd
000002c0: c0d9 563e f461 733e cb90 893e bfb1 bbbe
000002d0: a7df 4d3e 4b47 48be a1d7 853d 5c13 d4bd
000002e0: e6bb c13e 56fc 1fbe 1c3d 903e db1e 9a3e
000002f0: f439 f13e 1ece c63e de83 e43e ae86 a9be
00000300: db77 443e 46ce f23e cc4c 843e 241a c0be
00000310: 466f afbe 2681 d9be fe35 a23d adca 51be
00000320: 5758 44be c040 163d c8cd e6bd 6862 96bd
00000330: 0008 c7bb f5fa c93e d886 b83e aa95 83be
00000340: 9c16 c63e 2fc1 da3e 8370 5bbe d480 9dbe
00000350: c4ba a33e cf2a 623e 5fe3 023f df64 2fbe
00000360: 280c bc3d 91a4 883e fb98 3d3e 84f8 bd3d
00000370: c4e2 703e 3d98 b33e c9ca 4ebc d904 5ebd
00000380: b7b2 86be c344 2fbe 6dd4 5f3e edbb 083e
00000390: ebbf 193e b536 a83d 89bd bf3d bff0 bfbd
000003a0: 7d61 083f 4195 b23e 46a9 80be 1643 98bd
000003b0: 26ee bcbe 41e5 fb3d f862 083e 7cfc 0d3f
000003c0: f99b 8dbe 186a 14be bc34 07be 5a1f 00be
000003d0: 1cc7 a6ba a06c a13b f9cd 073e 425f ec3e
000003e0: 5f44 44bd f364 a9be 4cc4 3e3e a07b 543e
000003f0: bd0b 4dbe e418 5bbe 6cb9 a4bd 8322 babe
-0.08621958 -0.16985236 0.027714495 -0.23997092 -0.0044232286 0.36381683 0.40149215 -0.024576914
0.31095657 0.14617911 -0.12899457 -0.42206973 -0.012353259 -0.31773326 0.22153978 0.29203084
0.06445094 0.16443513 -0.16341135 -0.14078274 -0.39644453 0.06012578 -0.20938097 0.023282094
0.18339905 -0.39534047 0.076947846 0.23388022 0.3893784 0.6224434 0.22685301 -0.22612529
-0.23576678 0.100891985 0.3632384 -0.21288162 0.046126068 -0.45803887 0.22039069 0.124816366
0.20170799 0.06694252 0.11110307 -0.42445552 0.18524197 -0.23999298 0.32104674 0.362332
0.4657384 0.26882946 0.25502276 -0.28592768 0.07089337 0.05359326 0.46140796 0.10386579
0.10654644 0.028497452 -0.0005828219 0.25686625 0.07483927 0.36736432 0.023042895 -0.100646436
-0.49672428 -0.18112203 0.34057814 0.21014714 -0.3806158 -0.01580485 0.10058575 -0.31672812
-0.12494436 -0.36863515 0.13821942 -0.11685181 -0.16876039 0.32816333 -0.061584942 -0.027806237
-0.027905246 -0.37908652 0.45488566 0.47533342 0.12818624 -0.15021202 0.09338461 -0.17301215
-0.42741856 0.48148692 -0.17470035 0.16952144 0.19472693 -0.30124247 -0.3657131 -0.036946677
-0.36046597 0.043862 0.20682225 0.18696247 -0.060447518 0.28323355 0.075862885 0.05797484
0.34351358 0.06575556 0.15064643 0.041855384 -0.1278276 -0.19513677 -0.02500763 -0.13712825
-0.40332383 0.3351629 -0.17324728 0.08667148 0.090924636 -0.21569133 -0.16921906 -0.2927949
0.096308954 -0.32295844 0.24451122 0.1606303 0.5935747 -0.3642891 -0.056714293 0.05471794
0.21554701 -0.2780402 0.06988151 0.30063778 0.28719845 0.2450995 0.18593694 0.41279387
0.22197698 -0.367529 0.061183758 0.4887981 -0.13636059 0.28250134 0.24509136 -0.28689262
-0.3935581 0.36252648 -0.13544512 0.29582223 0.34538576 0.04576685 -0.2969634 0.091996916
0.2730045 -0.080528736 -0.23676997 -0.36275786 -0.25614545 -0.24755426 0.1421752 -0.20149422
0.46591672 -0.022536717 0.43976846 0.43449235 -0.20652288 -0.3340563 -0.263794 0.27219424
-0.38772845 0.10430849 0.16202399 -0.13576524 -0.050257865 0.027584936 -0.30184305 -0.10324417
0.20981503 0.23767835 0.2686828 -0.36659047 0.20104848 -0.19558446 0.065352686 -0.10355255
0.37838668 -0.15623602 0.28171623 0.30101666 0.47114527 0.3882913 0.44631857 -0.33110565
0.19186346 0.47423 0.2583984 -0.37519944 -0.34264582 -0.42481345 0.079204544 -0.20487471
-0.19174324 0.036682844 -0.112697184 -0.07342988 -0.0060739517 0.39449278 0.36040378 -0.25700122
0.38689125 0.42725512 -0.21429639 -0.3076235 0.31978428 0.22086643 0.5112819 -0.17128323
0.09182006 0.26688054 0.18515389 0.09275916 0.23524004 0.35077086 -0.01262159 -0.05420384
-0.26308224 -0.17116074 0.21858378 0.13352938 0.15014617 0.082135595 0.09362323 -0.093720905
0.53273755 0.34879497 -0.25129145 -0.074346706 -0.36900443 0.12299586 0.13319004 0.55463386
-0.2765806 -0.14493597 -0.1320371 -0.1251196 -0.0012724134 0.004926279 0.13262166 0.46166426
-0.047916766 -0.3308483 0.18629569 0.20750284 -0.20024009 -0.21396214 -0.08043179 -0.36354455

fc1.bias f4 [64]
00000000: cf11 b43e b7a0 a8be 31ff a03e 28d4 9dbd
00000010: f079 bdbd 4fe7 a6be 9c69 82be cdd5 58be
00000020: 8516 91bd 49f6 af3d 18a6 fcbd 28e8 cd3e
00000030: 042a c63e a596 47be c240 9dbd 8469 b93d
00000040: fe93 8bbe 2b49 b13e 6623 94be 70c1 87be
00000050: c02a ee3d c3a4 b63e 49cf 8b3e ce08 b33e
00000060: c1c0 fc3e 4b27 24be 28e8 febd 6826 3a3e
00000070: b722 94be 6b05 183e 8724 df3e 8f53 223d
00000080: f6e9 3e3e 24d6 9b3e ea17 de3d 93c1 6a3e
00000090: f4a2 f83d 1d5f a03c 3334 a8bc ad4d 333d
000000a0: 8fab e23e 6894 5a3e 8a8e 3cbe 1745 4a3e
000000b0: 8727 ffbd 93c5 b4be a5e2 d4bd 8426 2bbe
000000c0: b137 a23e 4513 aa3e 415c da3e 5ee5 c63e
000000d0: ba67 6c3e 905e 94be 6ec1 93be 40ce a9b9
000000e0: 1edf 34be 2547 b4be 94a8 1fbe 1bd9 6fbe
000000f0: c81c b53e 19a4 3ebe 9ca2 2e3e e052 a83e
0.35169837 -0.32935116 0.31444696 -0.07706481 -0.09251773 -0.3259835 -0.254712 -0.21175309
-0.070843734 0.08591897 -0.12336367 0.40216184 0.3870393 -0.1949106 -0.07678367 0.09053329
-0.27261347 0.34626135 -0.28933257 -0.2651477 0.11629248 0.35672578 0.27306584 0.34967655
0.4936581 -0.16030614 -0.12446624 0.18178713 -0.28932735 0.14845817 0.43582556 0.03963047
0.18643937 0.30436814 0.10844405 0.22925405 0.12140456 0.019576604 -0.020532703 0.04377525
0.44271514 0.21345675 -0.1841375 0.19752918 -0.12458711 -0.35306987 -0.103947915 -0.16713911
0.31683114 0.33217826 0.4264851 0.38846868 0.23086444 -0.28978395 -0.28858513 -0.0003238786
-0.17663237 -0.3521053 -0.15591651 -0.23422663 0.3537352 -0.18617286 0.17054218 0.3287573

rnn.weight_ih f4 [192, 64]
00000000: f9cb 453f f9f6 f3be 2b8e d73d 58ab efbd
00000010: df28 413f 4474 2b3e 2991 b8bd 1945 c93d
00000020: 5082 cc3d 62ef 9d3d 70d2 8abe 9845 be3d
00000030: 2b81 093f 670a db3d 4be9 8b3e 7615 aebe
00000040: 88c3 f5bc 346a 983d 6ac8 943d 5c62 34bd
00000050: e30a dcbe 3ec4 803e c654 323e 8f2a 5a3e
00000060: d91b 723e 2038 9b3d dc5d 723e 3f12 fbbc
00000070: 80da 2bbc 40c9 59bc a0fb 063e c6cb 813d
00000080: fb8b 41bd baea 073e f2d2 7a3e 75bf 903e
00000090: 48a3 833e 9df3 7d3e 6362 163f d391 783f
000000a0: c797 333f a565 293e d0db a03d 85ab 2e3f
000000b0: 5188 bd3d 97c8 963d f28b aabd 0a96 813f
000000c0: b607 013d ad59 29bd 1563 0e3e 5e44 26bc
000000d0: 0af6 7c3e f0bf 233d 8495 923d 28a8 373d
000000e0: 3417 5abe fcba 11bd 2194 10be 8b35 e43d
000000f0: d81b 6a3e 6270 08be 1495 653e 2123 683d
00000100: 1e82 873e 9058 e1be 9fe8 ed3d 244e 953d
00000110: 365d fa3e 0bdd 643e d46b d53c c9ab 973e
00000120: 3dfb cb3b b61d 8c3d 8610 8cbe df85 2dbe
00000130: fa1a 733e e304 ca3e ddd0 223e e687 cdbe
00000140: 5096 5a3d 579f 8f3d b0ce f5bc 6291 8c3d
00000150: e7a5 c5bc f498 323e a41d e4bc e00e b1bd
00000160: 7801 27bd 7ab4 eebd 7a1b c63e dd09 d2bc
00000170: d8d5 25bd a3d0 fd3d 552e 373e fc0a 563d
00000180: 78b8 1cbe 5675 b4bd 6201 093e a796 943d
00000190: 9c28 8ebd 5924 0e3e 356b 243d 5254 453f
000001a0: f8de 06be 9895 453e 88bf 563d ed76 273e
000001b0: 307a 8f3d 886f 2d3e aa69 d9bd ba27 2b3f
000001c0: 2737 a2bc 7a2f 1abe 5ade 1fba 4348 8cbd
000001d0: 545d 18bd 4924 ca3c 009f 373d 2f18 55be
000001e0: 18da d9bd ae0a 85bd 463f 6ebe d6a1 923e
000001f0: 9a39 5e3c 9cdb f8bd ad49 0b3e af38 48be
00000200: e788 833e bd9b 153e 475b 3d3c 34d6 de3d
00000210: 7a40 de3d 65d5 533c a2b3 06be 5fc7 db3d
00000220: fbc9 123e fa0a 243e e8df 14be 296c 163e
00000230: b831 f93d b382 863e 8d9e 06be 10c0 e4be
00000240: 3821 bdbd b87e c43a 604c 9bbb e85b 0cbd
00000250: 604c 4dbe 172f 163e fb9f 3e3e 2221 3d3e
00000260: 07b3 0a3e a898 e4bc b56d 863e ecf5 013e
00000270: 5400 4a3d 1343 553d 9fdc 1d3e 33f5 db3d
00000280: dcbe 6b3d aed1 76bd 7738 d33d 313d 723e
00000290: cfd8 1e3e 7202 033e ed28 753e a5bd 993e
000002a0: 5f6a 1d3e 0176 633e ec46 093d 542f 023f
000002b0: 6136 833d 24f5 3b3e 156e 873d b4c3 073e
000002c0: 2439 603c b862 f93d bcbd 803c 7e49 05bc
000002d0: 29dd f63d d703 1a3e 587b d1bc 946e 473c
000002e0: eefd 93be 2c26 7c3d 4e8f 67be 25dd b73d
000002f0: 53a4 c2bb 1c3f 31be 1da5 e33e 02dd 053c
00000300: d5b0 ed3e 4dea 9ebd 88eb 0e3e 6096 bdbc
00000310: 8172 e13e 6285 2a3e fe0d e23c accf 013e
00000320: 7ec3 933e 3769 e13d 198b eabe 2dac 513d
00000330: ffb0 7e3e 6ab2 e13d 3293 a93d 5945 10bf
00000340: 3e8e fd3d b6e0 9c3d 201b fbbc 46a3 a13d
00000350: 5c29 b43e 9de5 503e 93ed 4abd 083b fb3c
00000360: 34cd 103d 18ff 473d efea bb3e facb c6bd
00000370: 5cf2 a23d aef8 9a3e 7862 733e f758 323e
00000380: 83aa 6bbe 87ce 2abd d28e d13e e3bd b93e
00000390: 7d42 463e 3cfe 7d3d f5fd d93e ef9c 6bbd
000003a0: 93de 75be 1978 a13e bc02 273d 1ac5 943e
000003b0: 6924 0f3e 8461 cb3d 1cda 883d 0de2 753e
000003c0: 46b5 3f3d 239f a8be 4f07 00bd 86ed 013e
000003d0: 14e6 0d3e 26fd 0d3d 6090 f1bd de9a 1bbe
000003e0: cdf5 86be 7852 e43d dbe6 25be 08c7 203e
000003f0: 8e70 fc3d 5e95 0ebe 54be a4be 599d 1bbe
0.7726436 -0.47649363 0.10525163 -0.11702603 0.7545299 0.1674357 -0.09012062 0.098276325
0.09985793 0.07711674 -0.27113676 0.09290618 0.5371272 0.106953435 0.27326426 -0.34000748
-0.030000463 0.07442132 0.072647884 -0.044039115 -0.42977056 0.2514972 0.17415151 0.21305297
0.23643436 0.07579064 0.23668617 -0.030648349 -0.010489106 -0.013292611 0.13181925 0.06337695
-0.047252636 0.13273135 0.24494532 0.2827107 0.2571051 0.24799962 0.58743876 0.9709751
0.7015347 0.1654268 0.07854426 0.6823047 0.09254516 0.07362478 -0.08327474 1.0123913
0.031501494 -0.041345287 0.13904984 -0.010148136 0.24703231 0.039977968 0.07157424 0.0448381
-0.21297914 -0.035578713 -0.14119007 0.11143025 0.22862184 -0.1332412 0.2242015 0.056674127
0.2646646 -0.4401288 0.116166346 0.07290295 0.4889924 0.22349946 0.026052393 0.2962325
0.0062250183 0.068416044 -0.27356356 -0.16945599 0.2374076 0.39456853 0.15899988 -0.40142745
0.053366005 0.070128135 -0.030005783 0.06863667 -0.02412696 0.1744116 -0.027846165 -0.08645415
-0.040772885 -0.11655517 0.38692838 -0.025639469 -0.04048714 0.1239331 0.17888768 0.05225657
-0.15304744 -0.088114426 0.13379434 0.07255297 -0.069413394 0.13881053 0.040141303 0.7708179
-0.13170993 0.19295347 0.052428752 0.1635396 0.07005727 0.16937077 -0.10615857 0.6685749
-0.01980169 -0.15057173 -0.00060985016 -0.0684972 -0.03719838 0.024675505 0.04482937 -0.20810007
-0.10637301 -0.064961776 -0.23266324 0.28639096 0.013563538 -0.12151262 0.13602324 -0.19552873
0.25690386 0.1461019 0.011557407 0.108807 0.10852142 0.012929295 -0.13154462 0.107313864
0.14334862 0.16019812 -0.14538538 0.14689697 0.12167686 0.2627159 -0.1314642 -0.44677782
-0.092348516 0.0014991378 -0.004739329 -0.034267336 -0.20048666 0.14666401 0.18615715 0.1846967
0.13544856 -0.027904823 0.26255575 0.12691468 0.04931672 0.05206592 0.15416192 0.107401274
0.057555065 -0.06025856 0.10313504 0.23656155 0.15512393 0.12793902 0.23941393 0.300275
0.15372609 0.22212984 0.033514902 0.50853467 0.06406856 0.18355232 0.06612793 0.13258249
0.013685498 0.12177032 0.015715472 -0.008135198 0.12053902 0.15040527 -0.02557151 0.01217236
-0.2890467 0.06155984 -0.2261326 0.08977727 -0.005939999 -0.1730923 0.4446191 0.008170368
0.46423975 -0.07759533 0.13957036 -0.023142993 0.44032672 0.16652444 0.027594563 0.12676877
0.28860086 0.11006396 -0.45809248 0.05118959 0.24872206 0.11020358 0.082800284 -0.56355816
0.12380646 0.07660048 -0.030652583 0.0789247 0.35187805 0.2040009 -0.049542975 0.030667797
0.035351947 0.04882726 0.36702678 -0.09706874 0.07956383 0.30267853 0.23768032 0.1741675
-0.23014264 -0.041700866 0.40929276 0.36277685 0.19361301 0.062010035 0.42576566 -0.05752271
-0.24010687 0.3153694 0.040774092 0.29056627 0.13978733 0.09930709 0.06682226 0.24012013
0.046803735 -0.32933912 -0.03125697 0.12688264 0.13857299 0.03466525 -0.117951155 -0.15195796
-0.26359406 0.11148542 -0.16201346 0.15700924 0.123261556 -0.13924167 -0.3217646 -0.15196742

rnn.weight_hh f4 [192, 64]
00000000: 3d39 08bd 640c 9f3e 157b 523d 9565 c2be
00000010: 025a 47bd ff00 8ebd ddb9 d8bd f0d5 8fbe
00000020: d9c7 db3e 8d7f 83bc d2b0 883d d598 b23e
00000030: 37ed 83bc 37b9 8b3e 76e0 6cbe 6b0d 86be
00000040: 84b8 68be 7944 123c 587b c6bd cff6 973e
00000050: 130e 2cbe 6896 ad3e 3e9d 463e 5c19 27be
00000060: 620c 1b3f ca5f f63d 0698 10be e307 d93d
00000070: 2887 17be 7226 8a3e 5aa8 483e c8c6 6dbe
00000080: d064 8bbe 4bd4 fcbd 3c0b 18be a46e 573e
00000090: d7e7 70be 9bf9 d3be 4e20 18bd b999 13be
000000a0: 7861 99be b054 eabc 0140 04bb dd8b 55be
000000b0: 4b64 6ebd 7fa3 193d 602b e7bd 7abc 0abd
000000c0: 9cdb 70be 5220 963e eca7 3a3e ef13 6e3d
000000d0: 38ad 783e 1960 663e 3f34 0b3d 7f62 ca3d
000000e0: e97e a1ba 4a8f 04be 00e5 983e 339a ddbd
000000f0: d3b8 233d da1e 9f3e 3c67 e93d 0ed8 09be
00000100: c942 a2bd 259c b23d 3ef2 8bbd 7848 3d3d
00000110: 074a 22be 3bbf 6a3c 1d92 c03d 27c7 2bbd
00000120: da96 0cbe 2947 7d3c a7e8 e3bd ee0b 5b3d
00000130: ca6b 59be 83ff 673e f926 9dbd a2a1 4abe
00000140: 189c 3bbe 4147 fe3d 87de 06be 1340 febd
00000150: 9138 693e bff9 f23d 727d 803e f043 3ebe
00000160: 233b 21be 8fcd 033e 35bb 293d 8750 2b3d
00000170: e74f f6bd beb4 58bc bd78 ab3d 475c 3bbe
00000180: 9acd 2fbe 7ec0 d2bd 33fc c4bc 8890 d5bc
00000190: d4a5 253c 6e16 57be 6a77 923d ce37 1bbe
000001a0: 3d5c 18bc ac78 17be 1757 59bd 6305 35be
000001b0: 3a5c 30bd dc4f ad3d c652 53bd 838a f3bd
000001c0: cc37 853e d530 d63d 788f 1d3e b965 4a3e
000001d0: a349 293e 8700 2e3d 9d60 66be 5db0 34bd
000001e0: 99ee 4d3e 8220 6e3c fc9d 65bc 130b 90be
000001f0: 3eb3 0ebd 001a a83d d7c5 0d3e 7af4 9f3d
00000200: 6ef5 c43d 6f8c 213e c468 46be 103f c1bd
00000210: df30 02be 19b2 04be ce7e 343d 603c c9bd
00000220: 2087 403b bbc8 dfbc 7960 c2bd 9677 2e3e
00000230: 6d9a 8abd 3ee4 8d3d 81dd a73d 60f6 62be
00000240: 3b85 2a3d 787d 0cbe 94d1 a73d 1def 883d
00000250: 8f0f 26bd 8b68 8ebd 5f00 0dbd 6fdc c5bd
00000260: 4d38 a7bc 68f3 dfbd b645 7c3d 092a c33d
00000270: efd5 203d f881 793e 3641 8abd c499 41bd
00000280: fc29 bfbc 0140 96bd f245 193e 5be5 cbbb
00000290: b392 9f3d fe2b 263d 5873 6fbc 26be 41be
000002a0: 8339 983d b31d 2bbe b443 a93d ac14 2fbe
000002b0: a182 a13d 61fc 45bd f784 d63d 7f55 a33d
000002c0: 72fc 163d ef88 de3d 3dee 293e ff82 153e
000002d0: a771 103d 7163 c7bd a3d0 f6bc 6660 d7bc
000002e0: 581f d73d bd07 983c d651 d83c b00a 18be
000002f0: 0e9d 283e e989 4d3d b9ca 2fbd 615a c93d
00000300: 893d 953c b2ff cebd 87f1 adbd 5894 6e3d
00000310: c4e4 6bbe ab84 193d 60bf f73c 5c98 15be
00000320: eed9 f1bd 1877 193e 23b7 aabd 170d 353e
00000330: 8f1c a2bd b1d6 483e 7bff dc3c 3516 36be
00000340: 5cf9 d83d 0ad2 bcbc 0a1c 6f3c 65a9 e6bd
00000350: 62b9 223e 1869 06be ea23 a7bc b97f c43c
00000360: 5c18 dbbc f979 773c 3672 55be 35d3 8b3d
00000370: e43e be3a 3cfa 89bd f081 503d ba70 7cbe
00000380: 27bb 49be 29d8 33be 12fd 3f3d 2860 0abe
00000390: e61c 823d 4bde 1f3d 1451 853e 4527 18bd
000003a0: f970 e7bd 4d52 66be ef63 923d b352 b2bd
000003b0: 35a8 cf3d 2767 6e3d bb4a 92bd f76d d0bd
000003c0: 44e1 f53d 8d43 103e 804c 183c 1c78 0a3e
000003d0: 84d6 89bc 1922 4b3d 762d 86be adaf 31be
000003e0: d768 433e 43c6 ce3d ab20 a83d b039 c8be
000003f0: d691 40bb 848d 64bd abaa a8bd 3659 813c
-0.03325771 0.3106414 0.05138691 -0.37968126 -0.048669823 -0.06933784 -0.105823256 -0.2809291
0.4292591 -0.016052032 0.06674351 0.34882227 -0.016104324 0.27289745 -0.231325 -0.26182112
-0.22726637 0.008927458 -0.09691495 0.29680488 -0.16802244 0.33903813 0.1939592 -0.16318268
0.6056577 0.12029989 -0.14120492 0.105972074 -0.14797652 0.26982456 0.19595471 -0.2322036
-0.2722535 -0.12345179 -0.14848036 0.210383 -0.2352594 -0.4140137 -0.037140183 -0.1441411
-0.29957175 -0.028604835 -0.002017975 -0.20854135 -0.058201116 0.037509438 -0.1128757 -0.03387115
-0.23521274 0.29321533 0.1822812 0.05812448 0.24284828 0.22497596 0.033985373 0.09882068
-0.0012321147 -0.12945285 0.29862213 -0.10820427 0.039971184 0.31078225 0.113966435 -0.13461325
-0.079228945 0.087211885 -0.068333134 0.04621169 -0.15848552 0.014327819 0.09402869 -0.041937973
-0.1372942 0.01545886 -0.11128359 0.053478174 -0.21232525 0.22656064 -0.07673449 -0.1978822
-0.18321264 0.12415934 -0.13170825 -0.12414565 0.22775485 0.118640415 0.25095707 -0.18580604
-0.15745215 0.12871383 0.0414383 0.041824844 -0.12026959 -0.013226686 0.083726384 -0.1829692
-0.17168275 -0.10290621 -0.02404604 -0.026069894 0.010110337 -0.2100465 0.07151683 -0.15158007
-0.009299335 -0.14792126 -0.05306157 -0.17677836 -0.043056704 0.084624976 -0.05159261 -0.118916534
0.26019132 0.10458533 0.1538676 0.19765367 0.16531996 0.04248097 -0.22497793 -0.044113506
0.20110549 0.014534118 -0.014014717 -0.2813345 -0.034838907 0.08208084 0.13845001 0.07810302
0.096171245 0.15776227 -0.19375902 -0.09435856 -0.12713955 -0.12958564 0.044066243 -0.09825969
0.0029377416 -0.027317395 -0.09491057 0.17037806 -0.06767736 0.06928299 0.081965454 -0.22164297
0.041630965 -0.13719738 0.08194271 0.06686232 -0.04054218 -0.06953534 -0.034424182 -0.09661185
-0.020412588 -0.10935098 0.06158992 0.09529502 0.039266523 0.24365985 -0.06750719 -0.047265783
-0.02333545 -0.073364265 0.14968088 -0.0062224097 0.077916525 0.040569298 -0.014614902 -0.18920192
0.074328445 -0.16710548 0.082648665 -0.1709773 0.078862436 -0.04833639 0.1047458 0.079752915
0.036861844 0.10865962 0.16594787 0.14600752 0.035264637 -0.09735764 -0.030128783 -0.026291084
0.10504025 0.018558377 0.02640621 -0.14847827 0.16466162 0.05018035 -0.04291794 0.098316915
0.018217819 -0.10107364 -0.08493333 0.05824694 -0.23036486 0.037480038 0.030242622 -0.14608902
-0.11809145 0.14986837 -0.08335712 0.17680775 -0.07915603 0.19613148 0.026977291 -0.17781909
0.105944365 -0.023049373 0.014594087 -0.11262778 0.1589103 -0.13126028 -0.020402867 0.023986684
-0.026745014 0.015104764 -0.2084435 0.06827394 0.0014514592 -0.067371815 0.050905168 -0.24652377
-0.19700299 -0.17562927 0.046872206 -0.13513243 0.06353168 0.039030354 0.2603842 -0.037146825
-0.11300845 -0.22492333 0.07147967 -0.0870718 0.10139505 0.058203842 -0.0714316 -0.10177224
0.12005857 0.14088269 0.009295583 0.1352238 -0.016825922 0.049593065 -0.2620656 -0.17352171
0.19082962 0.10096409 0.08209356 -0.39106512 -0.00293838 -0.055799022 -0.08235677 0.01578961

rnn.bias_ih f4 [192]
00000000: a79a 1c3d c357 c5bd ae7a 00bd f979 d73d
00000010: e1fd 29bd 282e 1d3d ca32 913d d188 9ebd
00000020: 2588 763c 288f 803e d1b8 153e c4ab 5e3d
00000030: 04d8 3b3e 50d7 b43d c210 143d 6383 343e
00000040: 7e38 9fbd 6cc2 15bd 42b5 e6bd 8b61 b7bc
00000050: 2165 8cbd 87f8 e93d 2bc6 6b3d dcaf 853c
00000060: 8c31 27bd 72e6 493d b19e 5fbc 0721 0ebd
00000070: d8ef 173e c055 83bd f4b2 50bc 573a f4bd
00000080: 12bd f03d 575c 103e 2253 28bd d03a 323e
00000090: 403b 343e 70b5 e23b af08 5fbd 2b2b 2cbd
000000a0: 92d1 95bc 7a4f f73c e5f4 663d 2daf 69bc
000000b0: 7451 64bd d481 223e 56eb 4ebd babf b33d
000000c0: a337 d53c d8f4 0cbe 6d1f c23b 12a3 7e3d
000000d0: 812c b1bd 8376 ad3b 3d1f 863d 59e8 023e
000000e0: 654b 40bd 9f12 353e 4ccd 103d ae9f dfbd
000000f0: f2aa e63d f693 42bd 5771 563e 9cc2 26be
00000100: 51e6 5ebf b192 2c3e d1d9 6abe 9d24 fcbe
00000110: b5e2 82be 568f 1bbe f374 3bbe 2686 8ebd
00000120: b7a5 fe3d 39f8 82bf 9dc6 57bf e2ec bc3d
00000130: 379a 8abf 307f 7fbe 9683 ec3b 8f13 adbe
00000140: 1f09 7bbf c9bc b33e d047 e0be 8ab0 76be
00000150: 4ee0 aebe 0eb4 423e c74e 75bf 0af6 a1be
00000160: 08c8 af3e e7c7 b5be d31b 603e e0ed 8e3d
00000170: 0e06 d43d e256 d4be 0911 6cbf 19fd 493d
00000180: aa45 583e f073 6dbf 4c2e 69bf 58e1 643e
00000190: 1482 7b3e 326b ddbe c55f b0be ca43 58bf
000001a0: 4c18 353e b085 83bf a4a6 1abf 769f b53d
000001b0: d6c1 e4be 5ccc 5bbf 4cd5 65bf 6d2d 7abf
000001c0: 9070 3abf 6496 2a3e c785 763e 080a 12bf
000001d0: dfcf 1dbf f61a b4be 7305 cdbe c895 1dbf
000001e0: 5787 4fbf e1f1 b2be 9951 1ebf 7b74 103e
000001f0: 104d 71bf 4538 3b3e d5ad 86be 580d 6fbc
00000200: de7c 5c3d 0b42 763b f544 3bbe c1da 3ebe
00000210: d4a2 34be 29d4 6f3d 38e3 36bd 064f 01be
00000220: 2c22 a1bd 1ec5 133e 6f73 96be 19dd 2cbd
00000230: 5f0b 54be 97d9 913b e834 873d a849 a3bd
00000240: 4725 a1bd 1525 7e3d 5bd4 ad3d 3114 33be
00000250: ab4b 453e 0614 87bc 842e 313e a8b8 603b
00000260: 0e0c 033e 9da0 48be bb85 083d 9248 aebd
00000270: d576 81bc 1461 5cbb 7151 efbe 08a6 f0bd
00000280: bc9b d13c dc26 58bd dbd7 323e ef8e b23d
00000290: 2f0f c03d bfc3 0cbe 3f69 1e3e 020b 31be
000002a0: f720 8ebd 75e1 45be 0053 3a3e 2557 883d
000002b0: 649f 793e 059a bc3e ca4c 7a3e f161 8dbd
000002c0: a2eb 60bd 5b04 a63c 95c2 aabd b332 f83b
000002d0: f1f9 84be ff33 4c3d adfb 38bc 4eee 60be
000002e0: afbe 703e 0cf3 c63c d682 d13d 22aa 013d
000002f0: a30c 0f3e 2120 0e3e 5114 dfbd 7e56 383d
0.038233425 -0.0963588 -0.031366996 0.10521311 -0.041501883 0.038374096 0.07089765 -0.077409394
0.015047108 0.2510922 0.14621283 0.054363027 0.18344122 0.0883013 0.036148794 0.17628245
-0.07774447 -0.03656237 -0.11265041 -0.02238538 -0.06855226 0.11424356 0.057562035 0.016319208
-0.040818736 0.049292035 -0.013648675 -0.034699466 0.14837587 -0.0641284 -0.012737978 -0.1192519
0.11754812 0.14097725 -0.041094907 0.17405248 0.17600727 0.0069186017 -0.05445164 -0.042033356
-0.018288407 0.030189265 0.056385893 -0.014262957 -0.055741742 0.15869838 -0.050517403 0.08776803
0.026027506 -0.13765275 0.0059241564 0.062167235 -0.086510666 0.0052936687 0.06548927 0.12783946
-0.0469469 0.17682885 0.035352036 -0.10919128 0.11263074 -0.047504388 0.20941673 -0.16285175
-0.87070185 0.16852833 -0.22934653 -0.49246684 -0.2556359 -0.15191397 -0.18306331 -0.069591805
0.12433951 -1.0232002 -0.84287435 0.09224869 -1.0828313 -0.24950862 0.0072178347 -0.33803985
-0.9806079 0.3510497 -0.4380479 -0.24090782 -0.34155506 0.19013998 -0.9582333 -0.31633025
0.343323 -0.35504076 0.21885614 0.06978965 0.10352717 -0.41472536 -0.92213494 0.04931364
0.21120325 -0.9275503 -0.9108627 0.22351587 0.2456134 -0.43245846 -0.34448066 -0.8447844
0.1768505 -1.0275173 -0.60410523 0.088683054 -0.44679135 -0.858587 -0.8977859 -0.97725564
-0.72828007 0.16658932 0.2407447 -0.57046556 -0.6164531 -0.3517682 -0.4004322 -0.61556673
-0.8106589 -0.34950164 -0.6184326 0.14106934 -0.94258213 0.18283184 -0.26304498 -0.014590584
0.05383002 0.0037575986 -0.18288024 -0.18638135 -0.17640239 0.05855194 -0.044650286 -0.12627801
-0.07867846 0.14430663 -0.29384944 -0.042203043 -0.20707463 0.0044509876 0.06601888 -0.07973033
-0.07868438 0.062047083 0.08487769 -0.17488171 0.19267146 -0.01648904 0.173029 0.0034289751
0.12797567 -0.19592519 0.03333066 -0.085099354 -0.015803734 -0.00336272 -0.46741822 -0.11750418
0.025586955 -0.052771434 0.17465155 0.08718669 0.09377896 -0.13746546 0.15469836 -0.17289355
-0.06939881 -0.19324286 0.18195724 0.066572465 0.24377209 0.36836258 0.24443355 -0.069034465
-0.054912217 0.020265749 -0.08337895 0.007574403 -0.2597194 0.049854275 -0.011290473 -0.21965906
0.2351024 0.024285816 0.10230033 0.031656392 0.13969664 0.13879444 -0.10892547 0.04500436

rnn.bias_hh f4 [192]
00000000: 0abd 0f3e f01c fcbc ce93 3a3e fdd5 e63d
00000010: 5c5d e1bd 1f87 09be 0c73 203e eb80 d6bd
00000020: d24b cfbb 96a8 6f3c b29e a4bc ce8f 1cbd
00000030: 8400 383e d4bd 253c 4ed2 123d 4337 203e
00000040: 47d0 51bd 98a3 17bd ad39 1c3c ed62 263d
00000050: 00ef 1c3e 0db2 963d 8f00 023d b321 a7bd
00000060: 433b 09be dd8d 953c 5156 09be 5d89 7f3d
00000070: 0e8f 953d 0e08 0bbe 808f 193d 0999 5fbd
00000080: 9a33 9a3d 4965 db3d 30a9 493d f9de e93d
00000090: 5903 803e b8d7 533e 9d14 b9b8 bfa0 323e
000000a0: e019 97bd 017a 4bbd e58f 1f3d 51f4 7c3c
000000b0: 79e8 01be 18ea 06bc 347d a1bd d376 6b3e
000000c0: 3659 38bd 9eed 2bbc 65b2 d1bd cab6 dbbd
000000d0: 2aa9 813c b8cb 243e 1fee a1bd 8e00 a13c
000000e0: 355e 31bd 3fee 253e 35df 2b3e a67e f0bc
000000f0: 3edb a9bd 72ad 48bd 6775 3a3e 49b4 9dbd
00000100: ed8c 6cbf 97ab 343e 3ee2 ddbe 0de9 e8be
00000110: 097f 91be d0d5 ffbc fb99 24be e874 b13d
00000120: e29d 0c3e 180b 59bf 5cd0 81bf 406f 273e
00000130: 08e7 8fbf 5a64 8bbe f23a d43b e06f 20be
00000140: 17e4 5cbf 9348 863e d214 f1be 2601 86be
00000150: 9e72 dbbe 0f1d ec3d f932 74bf 5c12 aabe
00000160: c45f c63e b9ef d6be aa5a a03e 4703 803e
00000170: 7922 2b3e 96f8 d5be 115f 71bf baf4 2b3e
00000180: 0e87 823e 6bad 69bf 2ec3 2ebf 768c 083e
00000190: 4f02 753e 2e16 a4be 03d9 b6be 944b 4dbf
000001a0: 22cd a33e 348d 66bf b50d cfbe 54a3 e63d
000001b0: 5cae 99be decb 7bbf d8cd 86bf 4745 78bf
000001c0: 829b 34bf 8cf8 9e3e 512d 3b3e 9013 38bf
000001d0: bde6 01bf 8de6 e0bd e189 cebe 5807 28bf
000001e0: 7596 65bf 87d1 8dbe 6565 0abf f3af bc3e
000001f0: 9163 87bf 0f0f bb3d a0c9 85be f1a6 c03d
00000200: 47c4 8c3e ea2e 343c fa6b 4ebe 7782 03bd
00000210: 1f0f 11be d47a b0bd c2e1 403e f20f ad3d
00000220: 42d1 e13d 91ac a63e 04f2 a3be a97f a03d
00000230: 90d5 34be 6ca3 9d3e 5736 d83a 7e0f 69be
00000240: 3a3c 6dbe 8b8d debc e7ea 3d3e bf82 38bd
00000250: 9602 393e 3cf1 10bc ef35 843e 08eb 263d
00000260: b21b 28bd c37e fcbd 1a21 de3d 18cd bc3d
00000270: e1f6 09bd 40ec 3d3d 1adf a6be 44c0 db3d
00000280: 771e 94bd 38fc 2fbe ab85 7bbd 15e1 21be
00000290: bda4 c9bd 7f44 27bd 5d17 d93c 3794 80be
000002a0: ff40 a7bd 704b f7bd 6811 973e 8aaa 233d
000002b0: 6e74 673e bef6 d03e 0231 643e 5047 b6be
000002c0: 533d aa3b e495 fe3c 9fba 233d e0d2 6f3e
000002d0: e323 61bd e39d 973d b670 2dbe af49 75be
000002e0: df2f 903e b7e4 373e 5b97 ae3a 7156 bd39
000002f0: a5d3 183d 684a 853d 1c5c 06be 11b2 edbc
0.14036956 -0.030775517 0.18220446 0.11271284 -0.11004135 -0.13430451 0.15668887 -0.10473808
-0.006326177 0.014627596 -0.020095203 -0.03822308 0.17968947 0.010116059 0.035845093 0.1564608
-0.05122402 -0.03702125 0.009535235 0.040621687 0.15325546 0.07358179 0.031738814 -0.081607245
-0.13401513 0.018256122 -0.13411833 0.06238686 0.07302676 -0.13577291 0.037490368 -0.054589305
0.075293735 0.10712678 0.049233615 0.11419482 0.25002554 0.20687759 -8.825327e-05 0.17444132
-0.07377982 -0.0496769 0.038955588 0.015439109 -0.12686338 -0.008234523 -0.07885209 0.22994547
-0.045006953 -0.010493664 -0.10239104 -0.107282236 0.015827734 0.16093338 -0.07906746 0.019653585
-0.043302733 0.16204165 0.16784365 -0.029357266 -0.0829377 -0.048993535 0.18208848 -0.07700402
-0.92402536 0.17643581 -0.43336672 -0.45490304 -0.28417233 -0.031229883 -0.16074364 0.08664876
0.13732103 -0.8478255 -1.0141711 0.16351032 -1.124238 -0.27225 0.0064767534 -0.15667677
-0.8628554 0.26227245 -0.47086197 -0.2617275 -0.42860883 0.1152898 -0.9539028 -0.33217132
0.38744938 -0.4197977 0.3131917 0.250025 0.16712369 -0.4179122 -0.94285685 0.16792575
0.25493664 -0.9128024 -0.6826657 0.13334832 0.23926662 -0.32048172 -0.35712442 -0.8019345
0.3199244 -0.9005921 -0.40440145 0.11261621 -0.30015838 -0.9835795 -1.0531569 -0.9698071
-0.70549786 0.31049 0.18279006 -0.7190485 -0.50742704 -0.10981474 -0.40339568 -0.65636206
-0.89682704 -0.2769892 -0.54060966 0.3685299 -1.057726 0.091337316 -0.2613039 0.094068415
0.27493498 0.010997513 -0.20158377 -0.032106843 -0.14165924 -0.086171776 0.1883612 0.08450307
0.11026241 0.32553533 -0.3202058 0.07836849 -0.17659593 0.30788743 0.0016495687 -0.22759816
-0.23167506 -0.027167102 0.1854664 -0.045046564 0.18067393 -0.008846577 0.25822398 0.040751487
-0.041042037 -0.123288654 0.10846157 0.09218806 -0.033682708 0.046367884 -0.32592088 0.10730031
-0.07232373 -0.17186058 -0.061406773 -0.15808518 -0.098458745 -0.040836807 0.026500398 -0.2511308
-0.08166694 -0.120749354 0.29505467 0.03995756 0.22603008 0.4081325 0.2228432 -0.35601282
0.0051952987 0.031077333 0.039972898 0.23420286 -0.054965865 0.074031614 -0.16937527 -0.2395389
0.28161523 0.17958342 0.0013320254 0.00036113293 0.037311215 0.065083325 -0.13121074 -0.029015573

fc2.weight f4 [5, 64]
00000000: 6bf7 96be 5183 c0bd 202c d13e 937e a03d
00000010: 780b 903e fcd1 d43d 2738 efbe 9d7a 523d
00000020: 36eb 25be 7b59 acbd fdc6 873e bf54 9bbd
00000030: 7ff2 f93e f016 9ebe 0b07 ee3d b4d0 b13e
00000040: fc07 b43e b7b8 eb3d b0cd 77be 3921 aa3e
00000050: b029 d1be 7d87 573d 4c4a adbe 3714 a33d
00000060: 8e7c 0bbe 0dbb 843e fca8 983b 610e a63d
00000070: 87aa 54be c830 be3e 930d 703e e85b 273d
00000080: b8f9 c23d 090c f33e cb19 85be 2af1 303e
00000090: c74b dcbd cd51 193d f28c 87be 5528 8d3e
000000a0: 69bb 01be 7953 873e 6d46 53bc 68a4 103e
000000b0: fb90 a0be 8d58 54be e749 91be 2bf2 763e
000000c0: 149d a6be 0709 0fbd 0dd8 96bd f415 9bbe
000000d0: 3008 943c a2c8 b1be 6dc5 8f3e 591b 983e
000000e0: 11b9 84be 589e 89be a93b abbd 2c80 443e
000000f0: b107 91be aad6 f1bd 7ca5 e9bc 7674 90be
00000100: 7ea6 72be 2790 d1bd c41e ae3e b4e0 363c
00000110: e99d 453e 4163 2e3d 3b67 e1be 5f03 643d
00000120: 2b35 9eba c237 b0bd 93e5 743e f099 efbd
00000130: 08f3 ae3e 409e aebe abfc 013d a4dd 913e
00000140: 4438 a63e afb7 3a3e 2110 8fbe eb1f f23e
00000150: 871b cfbe 3d9d 803d d5f5 cebe 0223 493e
00000160: 6d42 74be 4017 8c3e f0ac c1ba 1ebf cebd
00000170: a42d 13be 139d c03e 26e9 d03d 0645 063e
00000180: d93e 943d 2df6 f53e 1534 a1be 305b 623e
00000190: e893 69be 9663 ba3d a927 b7be 1b21 8c3e
000001a0: f376 2fbe 806d 853e 38a3 dbbd c627 543d
000001b0: 031c 5fbe a763 8ebe a051 9ebe 84eb 273e
000001c0: d072 6fbe 6287 22be 98e5 94bd 2dc2 92be
000001d0: 2a86 843e ba77 c6be e78d 903e 5a20 253e
000001e0: 7c63 8ebe aee8 eabd b1d7 febd fa78 673e
000001f0: 4ee3 a8be 7c1a 1fbe 87c2 e43b 5833 74be
00000200: 368c 9bbe 6f42 21be 3040 9c3e d584 bf3d
00000210: dfff 9d3e 8e4c 303e f6ef 7cbe 2a57 513e
00000220: 2386 9cbd 2907 80be a2a3 6c3e ce6c 45bd
00000230: da0b d33e 3966 83be be0a 9bbd 30bc af3e
00000240: ca47 b23e 5425 d13d 2907 98be 1887 d33e
00000250: 3779 a9be a0a0 633d a93f a6be 7e4d fb3d
00000260: d313 dbbd 5fc1 f23d c6e1 ba3b a103 94bd
00000270: de28 9dbe c245 cd3e a823 8b3e 4dae c23d
00000280: 5c82 c43d ddff e23e c5d8 9fbe e4c8 c53d
00000290: 811d debd 4f6d 243d 96b1 a0be 1f6b 6d3e
000002a0: 8e83 08be 3699 bb3e 5ff0 34be a11c 0b3e
000002b0: e213 d0be 6720 19be 4852 2abe a943 783e
000002c0: e792 89be 451b 3ebb 8e6e 11be 243d a8be
000002d0: fc1e d23d 54f9 d8be 018e 963e f305 923e
000002e0: e53c 30be bf8d 69be d416 1cbe dcc3 153e
000002f0: c724 fabd 25f4 d6bc 0db9 a33d c7e6 92be
00000300: 062e 43be afe8 04be e2aa d93e c083 083e
00000310: f7c2 a83e 0751 533e 73bf 73be 96a3 0f3d
00000320: 31d9 efbd 9737 57be ae21 163e 62d4 c8bd
00000330: 5479 b33e a683 a6be c9eb a53d b6ea d63e
00000340: e62a 6f3e 9050 053d 0126 07be 03f7 d83e
00000350: 7eff ddbe aaa8 4d3d 9bb1 a7be 04d3 05bc
00000360: ce12 00be 0237 863e 04ea de3d c79f e7bd
00000370: 5e28 9dbe e1f8 f33e bfe8 313d 837a 2a3b
00000380: 6dca 783d c2dc ad3e 6fb8 58be ae0b 953d
00000390: 1043 eebd 6cd1 7a3d ebae 9dbe 9c90 813e
000003a0: f496 22bc 8bcc ab3e 7d04 86be 55cb 513e
000003b0: 6204 babe 71f9 25be 8df7 88be 9cbd 573e
000003c0: 71cc b3be 848d a8bd f67a 52bd c6b9 15be
000003d0: 201a 7e3e 5776 c9be 60c7 c33e 2af0 993e
000003e0: 0490 a4be 7174 8bbe ffc6 ccbd 949e 1f3e
000003f0: 08d2 4dbe 79c3 c63c fe67 a13d 5835 9ebe
-0.2948564 -0.094000466 0.40853977 0.07836642 0.2813375 0.10391614 -0.46722528 0.051386464
-0.16203007 -0.084155045 0.26519004 -0.075845234 0.48817822 -0.30876875 0.11622437 0.3472954
0.35162342 0.11509841 -0.24199557 0.33228472 -0.40852118 0.052619446 -0.33845747 0.0796284
-0.13621733 0.25923958 0.0046588164 0.08108211 -0.20768176 0.37146592 0.23442678 0.040859133
0.09520286 0.4747012 -0.2599624 0.17279497 -0.10756641 0.037431527 -0.2647472 0.27569833
-0.12669148 0.26430872 -0.012895209 0.14125216 -0.3136061 -0.20736904 -0.28376696 0.24115817
-0.32541716 -0.03492072 -0.07365427 -0.30290186 0.01807031 -0.34723383 0.2808031 0.29708365
-0.25922444 -0.2687862 -0.08360989 0.19189519 -0.2832618 -0.11808522 -0.028521292 -0.28213853
-0.23696324 -0.10232573 0.34007847 0.011161972 0.19298519 0.042575125 -0.4402407 0.055667277
-0.0012070289 -0.08604385 0.239157 -0.11699283 0.34169793 -0.3410511 0.031735104 0.2848941
0.32464802 0.18234132 -0.27941993 0.47289976 -0.4045069 0.06279991 -0.4042193 0.1964226
-0.23853464 0.27361488 -0.0014776271 -0.100950465 -0.1437288 0.37619838 0.102007195 0.13112268
0.0723855 0.4803938 -0.31485048 0.22105098 -0.22810328 0.09101026 -0.35772446 0.27369007
-0.1713522 0.26060104 -0.10724491 0.051795743 -0.2178803 -0.27810404 -0.3092165 0.16398436
-0.23383641 -0.15871957 -0.07270354 -0.2866377 0.2588361 -0.3876322 0.28233263 0.16125622
-0.27810276 -0.114701614 -0.124434836 0.22604743 -0.3298592 -0.15537447 0.0069811973 -0.23847711
-0.3038041 -0.15747999 0.3051772 0.093515076 0.30859277 0.17216703 -0.24700913 0.20443407
-0.07642772 -0.25005463 0.23109296 -0.048199467 0.4121998 -0.25663927 -0.07570408 0.34323263
0.34820396 0.10212198 -0.29692963 0.41314006 -0.33100292 0.055573106 -0.32470444 0.1227064
-0.106971405 0.11853289 0.005703184 -0.07227255 -0.30695242 0.40092283 0.2717564 0.095059015
0.095951766 0.44335833 -0.3122007 0.096574575 -0.10845471 0.040143307 -0.31385487 0.23185395
-0.13331434 0.36640328 -0.1766982 0.1358514 -0.4064017 -0.14953767 -0.1663295 0.2424456
-0.2686989 -0.0029007953 -0.1420233 -0.32859147 0.10259816 -0.42377722 0.29405215 0.28520164
-0.1721073 -0.22807978 -0.15243083 0.14625496 -0.12214046 -0.026239464 0.0799428 -0.28691694
-0.19060525 -0.12979387 0.42513186 0.13331509 0.32961246 0.20636378 -0.23803501 0.035068117
-0.11711348 -0.210173 0.14661285 -0.09806134 0.35053504 -0.32522315 0.08101613 0.41975945
0.23356208 0.032547534 -0.13198091 0.42375955 -0.43358988 0.05020968 -0.3275269 -0.008167986
-0.12507173 0.26213843 0.10884479 -0.11309772 -0.3069486 0.47650817 0.043434855 0.0026012964
0.060739923 0.33957487 -0.21164106 0.07277618 -0.11633885 0.061234877 -0.30797514 0.2530564
-0.009923685 0.3355449 -0.261753 0.20487721 -0.3633147 -0.16208436 -0.26751366 0.21068424
-0.35116914 -0.08230117 -0.051386796 -0.14621648 0.24814653 -0.393481 0.3823805 0.30066043
-0.32141125 -0.27237275 -0.09998893 0.15587837 -0.20099652 0.02426313 0.07881163 -0.30900073

fc2.bias f4 [5]
00000000: 0d4a f4bd 8d01 67be 28b4 1abe 434c 14be
00000010: 2af5 57be
-0.119281866 -0.22559185 -0.15107787 -0.14482217 -0.21089616
