parameters/VDN/49000/agent_2nd_stage_pump_params.pt (torch, 107696 bytes, 8 tensors)

fc1.weight f4 [64, 11]
00000000: b6f6 8a3e be43 e33d 42c5 e13d be02 103e
00000010: 6113 f2bd 8a19 33be 99a2 253e 96ab 94be
00000020: 4d0e 86be cf3a 083e 75c4 dc3d ad52 13be
00000030: 4be7 133f e489 6abe 2b8a 6abd 8781 433e
00000040: b3f7 2b3f b565 db3e ca16 8bbe f15c 4dbe
00000050: b1d1 553e 7788 48bd e83a 313e 9df6 1d3e
00000060: b267 373e 9952 1cbe bec6 593e 9c19 eabd
00000070: 1320 78be 6680 103e 1686 153e 85a5 b83d
00000080: 4a74 d73d 8634 893e f244 28bd 3ea8 dc3d
00000090: d22f 8abc 7372 2f3e 8842 a8be 7820 cf3d
000000a0: c146 a73e 2011 aebc a65e d2bc 4311 2a3e
000000b0: 3279 77be f4ad 1a3e 956b 96be cb56 c23d
000000c0: fed0 133e b40b 153f 2b60 a63e e726 6e3d
000000d0: 7d07 9abe 2489 78be 41b4 a3be f358 1b3d
000000e0: 35f3 abbd 2ac2 a6bd dcfd 873e 5d76 023e
000000f0: 4ddd 483e 6afd 3e3e c7cb 0e3e b14d 943e
00000100: dead 38bd 68f1 19bd fa69 3a3e eb94 56be
00000110: ca96 b93e f30e 3f3e c0aa 99be f67e e03e
00000120: 7aab 2b3e 44cc c8bd 1a56 4b3e 9031 903e
00000130: 13e9 96be a377 a13d 268e dcbe 05d5 27be
00000140: dacf 8d3d f688 1d3e 9075 23bf 021f f33d
00000150: 548e 02be 3d36 493e d288 503e 03af 9e3d
00000160: 1830 85be 58f3 65be 032c 39be 6533 623e
00000170: ac98 303e 5a21 16bf c121 a63d 8180 4ebc
00000180: 51d9 e13d 032f 573d cb42 853e 0d33 903d
00000190: 12cd be3e 6f1e efbd 51e1 51bd 1dc3 f0bd
000001a0: aa0b bf3e eb4f 02be 6009 82be 11cd 9fbd
000001b0: 704a 4abd 81ce 4f3e 0597 22be 44e5 fa3d
000001c0: d49d 7dbe 1849 753e c5c4 943e b6ff e73e
000001d0: e704 79be 59ea 05be c9fd d4bd 6b13 9c3d
000001e0: ff77 013e f1a1 983e c92d 973e be16 42bd
000001f0: 8212 633d 278b f23d eb00 52be 0fc4 80be
00000200: f11c 29be ab6d 343e f1a4 b33c a0b2 d83d
00000210: 45ee 16bc 9a12 833e ea22 903e 001a ab3d
00000220: 7290 40bd 73d0 f53e 71d4 503e 3c7f 66bc
00000230: d902 85be 18f8 66be 2675 08be f4b4 5f3d
00000240: c3e5 56bc f039 88be d965 fd3d ffb7 aabd
00000250: 5509 f13d 7a4b 8ebe d880 a53d cd83 913d
00000260: ebe1 7dbe c9ac 013e 8400 7fbe ff15 b8bd
00000270: 45da 453e 8733 21be 5b6c 86be 644a 82be
00000280: 7f78 a5bd 3c69 7cbd e150 26be a501 7e3e
00000290: 2c23 123e 84c5 a13e 7a3a 743e 520a c03e
000002a0: f657 b4bd ec9f 9e3e e698 a83e b9e8 a6bd
000002b0: 4919 2dbe a682 0cbe 6ba2 dfbd 9815 bebc
000002c0: 37b7 133d 9dc5 f3b9 3bc0 71be 9d10 49be
000002d0: 2366 98bd 326b b0bd 0c57 79bd 55d8 42be
000002e0: 5034 e5bd 3d1e 4abe 2e96 e0bd af77 ef3d
000002f0: 269b 9f3e 74d7 a43e 5e80 8e3d b1fb 2c3d
00000300: 0f5e cd3e 4ad0 8cbd 255b 1dbe 17e4 e73c
00000310: fd02 ae3e c3b6 e0bd 743b aa3d 506e 843c
00000320: 94c1 b9bd d2f6 8c3d f78c c3bd df55 ecbb
00000330: 71a6 c33d 40a9 1d3e b1e7 a2bd 1d33 973e
00000340: e167 e0bd 318e ba3e d34a 673e b022 16bd
00000350: 6c36 b23e 698d a43d 9690 9d3d 86a9 bdbe
00000360: c62a e93d 58b8 55be 18e8 9dbe 712b 283e
00000370: 4d85 a3be 0153 843e bda1 b5bd 6efe 8ebe
00000380: 97f5 d73c 98a6 f13d 8fba 073c 71ac b1bd
00000390: 7ef3 0ebe eb48 8bbe d7fe 59be f1ca 5e3e
000003a0: a2ef c63e e654 373d d00c 82be 97f9 873d
000003b0: b087 443c 22ea 503e 7554 01be a400 543e
000003c0: 01bc 523e 1b66 973c d391 a73d aadf a03e
000003d0: 59ee aa3e 3706 81be e633 80bd 5341 643e
000003e0: 0edd dfbd 4d11 283b 765a 663e a41a 933d
000003f0: 4c9a 92bd 736c de3e 2db5 d2bd 543d fe3c
0.2714135 0.11096905 0.11023952 0.14063546 -0.118201025 -0.17490211 0.16175307 -0.2903716
-0.26182786 0.13303684 0.10779659 -0.14387007 0.577748 -0.22904164 -0.057260673 0.1909238
0.67174834 0.42851034 -0.27165824 -0.20054986 0.20880772 -0.048958268 0.17307627 0.15426107
0.1791065 -0.15265884 0.2126722 -0.11430666 -0.24230985 0.1411148 0.14601931 0.09015945
0.10520227 0.26797885 -0.041081376 0.10774277 -0.016868506 0.17133503 -0.3286326 0.10113615
0.32671168 -0.0212484 -0.025679898 0.16608147 -0.24167326 0.1510542 -0.29378954 0.09489211
0.14435193 0.5822098 0.32495245 0.05814257 -0.30083838 -0.24271065 -0.3197346 0.037926625
-0.083959974 -0.081425026 0.26560867 0.12740465 0.1961567 0.18651357 0.13944922 0.28965524
-0.045087688 -0.03758374 0.1820449 -0.20955245 0.36247855 0.18658046 -0.30013084 0.43846864
0.16764632 -0.098045856 0.19857064 0.28162813 -0.29474697 0.07884147 -0.430772 -0.16389854
0.0692441 0.15384278 -0.6385126 0.11871149 -0.12749606 0.19649597 0.20364693 0.077482246
-0.26013255 -0.2245611 -0.18083195 0.22089918 0.1724574 -0.5864464 0.08111907 -0.01260388
0.11027778 0.05253507 0.26027521 0.07040987 0.3726583 -0.116757266 -0.05124027 -0.11755965
0.37313586 -0.12725799 -0.25397778 -0.07802785 -0.049387395 0.20293619 -0.15877922 0.1225076
-0.24767238 0.23953664 0.29056373 0.4531228 -0.24318276 -0.13077678 -0.10399968 0.07620891
0.12643431 0.2981105 0.2952712 -0.04738497 0.055437572 0.118429475 -0.20508163 -0.2514958
-0.16514947 0.1761996 0.021929236 0.10580945 -0.009212081 0.2560013 0.28151637 0.083545685
-0.047012754 0.48010597 0.2039354 -0.014068421 -0.25978735 -0.22555578 -0.13325939 0.05461593
-0.013116303 -0.26606703 0.123729415 -0.08335876 0.11769358 -0.2779196 0.080812156 0.07105217
-0.24793212 0.12663569 -0.2490254 -0.089885704 0.19321544 -0.15742312 -0.26254544 -0.2544738
-0.080796234 -0.061623797 -0.1624179 0.24805315 0.1427123 0.31596005 0.23850432 0.37507874
-0.0880584 0.30981386 0.32929152 -0.08149857 -0.16904177 -0.13721713 -0.10919651 -0.023203656
0.0360634 -0.00046495805 -0.23608486 -0.19635244 -0.07441356 -0.08614196 -0.06087403 -0.19027837
-0.111916184 -0.19738097 -0.109661445 0.1169275 0.31173056 0.32195628 0.06958078 0.04223222
0.40110824 -0.068756655 -0.153668 0.028307004 0.33986655 -0.10972359 0.08312121 0.016165882
-0.09070125 0.06883015 -0.09548371 -0.007212385 0.095532306 0.15396595 -0.07954348 0.29531184
-0.10957313 0.36436608 0.22587137 -0.036654174 0.34807146 0.08034784 0.07693593 -0.370434
0.113851115 -0.20871103 -0.30841136 0.16422822 -0.31937638 0.25844577 -0.0886874 -0.2792849
0.026362224 0.11799353 0.008284225 -0.08675469 -0.13960072 -0.2720407 -0.2128862 0.21757104
0.388547 0.0447587 -0.254004 0.06639402 0.011995241 0.20401815 -0.12629874 0.2070337
0.2057953 0.018481305 0.08182111 0.31420642 0.3338497 -0.25200054 -0.06259899 0.22290544
-0.10930835 0.0025645078 0.22495446 0.07182816 -0.07158336 0.43442115 -0.10288463 0.031035103

fc1.bias f4 [64]
00000000: ca85 5cbe 116c b53d 46f5 903e f5f5 4f3e
00000010: 3dc0 593e 112c 603e 5347 82be 9926 113e
00000020: 0778 853e cf10 8c3e 9f53 87be d244 19be
00000030: 7903 683e ce11 6dbe e596 a53d ca27 d7bd
00000040: 439c 85be 6c2c 35be 15bd 84be 4a1a 743e
00000050: 9d6e 9fbd 9b54 13be e696 4e3d e418 2e3e
00000060: a6f2 88bd 01cb 83be 3be9 88be e6b3 9abd
00000070: 2978 423e 32f2 7c3d f097 b1bc cd8d 273e
00000080: 8640 d7bd b2e8 24be 8303 4bbe 8374 5f3e
00000090: e6b4 443d 741d 863e d299 103c bafe 18bc
000000a0: 7a1f 123c 40df 89be 32ba 75be 4e75 8bbe
000000b0: 8560 903d 1467 21bd ea42 4f3d 8747 23be
000000c0: 431d 273d 2ead da3e 0e44 82be 42a7 153e
000000d0: 9bae 933e 3e17 9a3e 8476 ab3e f64e 113c
000000e0: 5e6a 4cbe e9cc 763e ec2e ee3e 0809 97be
000000f0: 2e82 af3e 15a3 543e 611b 873e 7c6c 943e
-0.21535411 0.08858503 0.2831213 0.20308669 0.2126474 0.2189181 -0.2544504 0.1417488
0.26068136 0.27356574 -0.26430985 -0.14967659 0.22657575 -0.23151323 0.080854215 -0.10505636
-0.2609578 -0.17692727 -0.25925508 0.23838153 -0.0778477 -0.14387743 0.050436877 0.17001683
-0.066869065 -0.25740817 -0.2674044 -0.07553844 0.1899115 0.061754413 -0.021678895 0.16362686
-0.10510354 -0.16104391 -0.19825558 0.2182179 0.04802408 0.26194346 0.008825736 -0.009338075
0.008918637 -0.2692814 -0.23996809 -0.27237934 0.0704966 -0.039404944 0.050600924 -0.15945254
0.04079939 0.4271025 -0.25442547 0.14614585 0.2884415 0.30095857 0.33488858 0.008868923
-0.19962451 0.24101605 0.46520174 -0.29499078 0.34279007 0.20765336 0.26388076 0.28989017

rnn.weight_ih f4 [192, 64]
00000000: 0c5b d73d 609f 00be a0a7 0a3d cedb d7bd
00000010: 0cd4 cfbd af16 86bd 74d3 12bf 383e f8bd
00000020: 484e cb3d 13ef 8a3e 8d02 813d e7eb bdbc
00000030: a5ce a43e 6487 75bd d847 563d 0ba6 63bd
00000040: 060b 9fbd 2467 93bd b0a5 3dbc a93c ef3c
00000050: 648d 46bc 5519 b33d a720 a03e 202c 1e3e
00000060: 7645 d9bd b8ec 273d 8e78 b83d bd1a d43b
00000070: 72c2 54bc 823c 023e 5663 52bd 3fcb 963d
00000080: a73e b5be c644 9ebd 58ee 04be 572c 763e
00000090: fe35 18bd e08d cc3d 4b1d a8bd 8918 a8bb
000000a0: 5f82 abbc 44ea 203d 3491 85bd fd1c 20be
000000b0: a0e6 90be 89a2 b73e a26d ef3b 88f4 ab3c
000000c0: eee4 033e 12fd 923e 4838 d3bd 925f cabc
000000d0: 7e52 0c3e 095f d23c b6d4 383e 6c96 113e
000000e0: f475 223d 7d7b 913e f870 513e 63ce 3fbe
000000f0: d6cb 00bd c410 a13d 9106 4f3e 28ea 923d
00000100: 60d7 b93c 7772 a5bd b459 72bd 3847 2bbe
00000110: 63a1 a2be 93f6 453c dc51 603f bda5 aabe
00000120: ddd1 d6bd 8da3 23bb d680 06be 7315 5dbe
00000130: a01a bcbc 02d2 8f3d 2c04 423d ce98 dd3c
00000140: e881 07bd 079a f53e c85c 853d ec04 09be
00000150: 7437 7cbd df06 5c3d 5ce5 0a3e 3d9c 91be
00000160: 9cb8 cfbd c004 063b 005e 84bb 9a88 45be
00000170: 6ef4 09bc 0610 8c3d 36fb 9b3e 2ce4 b7bd
00000180: 155b 173f 4040 6fbd eaa0 fcbc 94f8 53bc
00000190: 1b27 02be 0a35 aabd d2eb 83be c4f3 9bbe
000001a0: eb2d c3bd 4066 1dbc 229f bfbd a9df c53e
000001b0: 59d8 8a3e 2f06 79be 447f 20bd 464e c93d
000001c0: 7da4 98bd d551 87bd c7e2 7bbe b285 01be
000001d0: 9c70 acbd cb1f 18ba 2acf 4abe 096b 1dbd
000001e0: a27a 05bd 5c9e 163d dce3 d2bd 691e 5ebe
000001f0: 6633 5ebe 9374 86be aaa5 643e 4d6b 22bd
00000200: 50ba 3bbd 293b ae3d 397f 343e a079 913e
00000210: 1082 c33d 22b7 b13e 0a33 a43e 52b1 903e
00000220: fec0 4c3e 4107 873e edf3 8b3e 57a9 6d3e
00000230: ab09 8b3e 88ef 863d 7c75 0a3d 4b26 173e
00000240: 267c fa3d 8f0f 6c3e 02ef 8ebd ca58 b83d
00000250: acbf 65bd 75da 863e abad c43e ebf6 b73e
00000260: 0ee3 d4bd 4c78 42bd 4af1 cb3d 275e f53d
00000270: 71f8 623e 6d83 173f ad7e 433d 4e0b 003f
00000280: 9615 d33d 60ac 103c 4cc9 76bc fcf0 b23e
00000290: 45b7 533e 6e09 c53e 7c80 5b3e 7735 bc3e
000002a0: c0e3 833e 5074 253c a448 f8bd c3cc 4c3e
000002b0: 3803 6e3d a431 0a3f 56bd ae3d 962d 9abd
000002c0: 1178 993e 0085 b93e fcd0 cc3e f5ea 363e
000002d0: 29a1 113e d317 4f3e f19a 683e b27c 973e
000002e0: 9bbe dabd 4a58 1b3e bee0 c63e 4283 283e
000002f0: 07ed 383e 743a 833e f914 063f ec67 473e
00000300: 4012 833d 01c5 bebd 58e9 8b3d 62ae 733d
00000310: 7efb 23bd e405 653e 35a5 3a3f 8296 7f3e
00000320: 1e3e 373e b00a 6d3e c510 9e3d 9e3d e63d
00000330: f9a8 443e 7042 1abd 7cc0 b23d 29cb 343e
00000340: 6aa4 bd3d 1936 8e3e 243c 113d 59ef 1b3e
00000350: 1948 f2bd b6ee 2d3c 34bb b53e 2390 5f3e
00000360: 80c0 cc3b 3824 37bd a0d1 61bd 9034 8cbd
00000370: 584c 2b3e c92c 1e3f 97ee ef3d a415 733e
00000380: 5419 403e 8499 7dbd f012 debc 1816 b93e
00000390: 31d4 9b3d faf8 8f3e a8cc 0a3d 722c 903d
000003a0: 9562 a73c 2076 c53b 8075 ff3d 2d7a c83e
000003b0: 455d 863e 6bce f93d 6d9c 643d 80bd dfbc
000003c0: 1017 8f3d 20bd 883e a1c7 833d 47cd 703e
000003d0: 5b83 703e 6e5e 293e de2b 433e f31a 713e
000003e0: 4ae6 b1bd 5dd2 043e d585 de3e d090 87bb
000003f0: 1c3e 4f3e a61a 833c 66fe 0b3f 4229 063e
0.10515413 -0.12560797 0.033851266 -0.10539971 -0.101478666 -0.06547295 -0.573539 -0.12121242
0.0992704 0.27135524 0.06299315 -0.023183776 0.32188907 -0.05994357 0.05231461 -0.055578273
-0.077657744 -0.07197407 -0.0115751475 0.02920373 -0.012118671 0.08745066 0.31274912 0.1544652
-0.10608952 0.040997237 0.09007369 0.006472914 -0.0129858125 0.12718394 -0.051364265 0.07362985
-0.35399362 -0.07727961 -0.12981546 0.24040352 -0.037160866 0.09987998 -0.08208712 -0.005129878
-0.02093619 0.039285913 -0.06521836 -0.15636058 -0.28300953 0.35866192 0.0073067704 0.020990625
0.12880298 0.28708702 -0.10313469 -0.024703775 0.13703343 0.025680082 0.18049893 0.14217538
0.03966327 0.28414527 0.2045325 -0.18731074 -0.031444393 0.07864526 0.20217349 0.07173568
0.022685707 -0.08078473 -0.05916758 -0.16726387 -0.31763753 0.012082714 0.8762491 -0.33329573
-0.10489247 -0.002496931 -0.13135085 -0.21590213 -0.022961915 0.07022478 0.04736726 0.027050402
-0.033082873 0.47969076 0.06511837 -0.13380784 -0.06157632 0.05371749 0.13564056 -0.28439513
-0.10142633 0.0020449609 -0.004039526 -0.1929039 -0.008420093 0.06838994 0.30465096 -0.08979067
0.59123355 -0.058410883 -0.030838449 -0.012937684 -0.1271023 -0.08310898 -0.25765854 -0.30459416
-0.095302425 -0.009606898 -0.09356524 0.38647202 0.27118185 -0.24318765 -0.03918387 0.098293826
-0.07453249 -0.06607405 -0.24598227 -0.12648657 -0.08419916 -0.00058030774 -0.1980559 -0.038432155
-0.032587655 0.036772117 -0.10297367 -0.21691288 -0.21699294 -0.26260814 0.22328821 -0.03965311
-0.04583198 0.08507378 0.17626657 0.28413105 0.09546292 0.34710032 0.3207019 0.28260285
0.19995496 0.26372722 0.27334538 0.2320913 0.27155814 0.06588656 0.033803448 0.14760701
0.12230711 0.2305281 -0.06979181 0.0900131 -0.056090996 0.26338544 0.38413748 0.3593057
-0.1039487 -0.047478005 0.099581316 0.11980849 0.22165085 0.59184915 0.04772823 0.5001725
0.103068516 0.00883016 -0.015062641 0.3494948 0.2067538 0.38483757 0.21435732 0.3675954
0.25759697 0.010098532 -0.1212323 0.19999985 0.05810854 0.53981996 0.08532207 -0.07528226
0.29974416 0.36234283 0.40003192 0.17863066 0.14221634 0.20223932 0.22715355 0.29587322
-0.10680886 0.15170398 0.3884334 0.16456321 0.18059169 0.25630534 0.5237575 0.19473237
0.06399965 -0.09314919 0.06831616 0.059492476 -0.040034764 0.22365528 0.72908336 0.24959758
0.1789479 0.23148608 0.07718042 0.11242221 0.19205083 -0.037661016 0.0872812 0.17655624
0.09259875 0.27775648 0.035457745 0.15228023 -0.11830158 0.010615995 0.35494387 0.21832328
0.0062485337 -0.044712275 -0.055131555 -0.06845963 0.16728342 0.61787087 0.11715429 0.23738724
0.18759662 -0.061913982 -0.02710864 0.3614967 0.07608832 0.28119642 0.03388658 0.07039727
0.02043275 0.0060260445 0.12473583 0.39155713 0.26243034 0.12197574 0.05581324 -0.02731204
0.06986821 0.2670679 0.064345606 0.23515807 0.23487608 0.16539928 0.19059703 0.23545437
-0.08686502 0.12970872 0.4346148 -0.004137136 0.20238537 0.016003918 0.54685056 0.13101676

rnn.weight_hh f4 [192, 64]
00000000: 2116 80bd 2c45 673e 746c 41be 6040 bfbd
00000010: b98d 173d 5f05 80bc 7bf0 363c ea72 b8bd
00000020: bf38 ec3c 487e 073e a140 08be 4510 863e
00000030: 4759 593e 2018 5bbe ca3a fd3d 41c4 a83b
00000040: b38f 733e 21ae 46bd fa0c 0b3e 51b1 a9bd
00000050: 2cf0 d03a 1d99 a13d 9d76 203e c6b3 2abd
00000060: 62f9 ee3d 89b5 553e 9dfd 863e 2fc7 043e
00000070: 643b 7fbc 46b7 f93b cd2b 05bc 976c 133d
00000080: baa4 f43d 41f5 bf3c 60c5 203e 86a6 323e
00000090: 1396 e7bd cb34 b23d d224 6a3e cc52 c1bd
000000a0: 7b6e 6c3e 3341 18be bccf c03c 5463 41bd
000000b0: a6b6 ff3d 76d6 f83d d496 b6bc e6df 23be
000000c0: 270f da3d 00d1 4e3b 6312 443e 7a6e 0dba
000000d0: df15 01be 54d4 dc3d 1551 80be 0404 78bd
000000e0: 0871 d53d a69a 8cbc f102 9dbc 885e 4cbe
000000f0: 1a82 d93d 0c27 44bd e8b2 23bc 06c3 4bbe
00000100: ce62 8b3d bf71 e7bd 124c 2fbc b0c1 1ebe
00000110: e722 b6ba 4282 9f3d 8754 2bbd 8916 a93e
00000120: 6e61 9abb c810 093e b2d5 4e3d 61be f23c
00000130: 612c 8d3c 869c debc a2a6 c53d 3602 4abe
00000140: a3c0 e23d a724 60be 4dea ca3d 8517 a2bd
00000150: fc8e 133e 942c e13d 5513 36bb c9c0 f6bc
00000160: fd5a cf3d 5509 9bbc 1912 60bd 41e4 3f3d
00000170: 9791 bebd c0be e2bc 6415 39be 57ff 153e
00000180: 4bf2 893e 5d68 5f3d 2ccf bfbd 8646 fabc
00000190: 32ff 2ebe fe55 d43c ed3c 16be 4938 f3bd
000001a0: 94c7 95bd 47d4 86bd df60 2dbe b3c9 093e
000001b0: 2059 f03d f7ff d3bd eca9 1ebe 4d7a b2bd
000001c0: fb60 03be efb8 5cbd 3852 4c3e 77f7 093c
000001d0: ff3d a83d 25a7 7d3d 781a f5bd 96bf 183b
000001e0: 2a02 bf3d 46ba 243e 3fc9 60bd 7592 c53d
000001f0: 4806 6b3d 047b 243d dd42 bfbe ad0e 55bc
00000200: 740a 263e 4ea1 41be d6c1 083e dc62 c23d
00000210: acf0 b23d fea0 01be 4f8b 983d 30c1 aebd
00000220: de5e 3c3e 7f6a 07be 601b c83d 2b53 c2bd
00000230: 81bb 71bc 5822 553d 3fec 4fbe 8b94 153e
00000240: 67cc 22be 6a05 c03d 380f a3bc 5a8b de3d
00000250: 1dd2 07be f4f5 99bd 3916 32be 7d2c 183e
00000260: e656 b83d 52a0 30bd ed57 253e 128f 5fbe
00000270: 85b4 413e f38a f839 a9dd d03d fae8 58be
00000280: 4002 d53c f10f 3ebe c0f7 fbbd b6dd 53be
00000290: 1cda 573e 97fc 2dbe f527 60bc 2cc2 153e
000002a0: 6421 52bd efc3 3a3e d57e 0a3d 0215 8c3d
000002b0: 7768 00bd a35d 35be ab13 013e 8739 b63d
000002c0: fb94 b43d 7c7b 5f3e ec34 3dbe c041 6ebc
000002d0: d350 083e 18a4 50bc 08d9 99be 61ea 3ebe
000002e0: 9964 8bbe fb09 e6bd 83b6 f13d feb6 803e
000002f0: 1bba 68bd 420a 953e e29b babc 573d 503e
00000300: 7226 793e 5b0a 63bd 1e20 133e 25f2 343e
00000310: f41c d13d 66fb e33c 1669 033e e475 863d
00000320: ab4a ef3d 4bbc 4fbe 6e04 363e 2c67 f1bc
00000330: 0323 16be 4cb5 2f3e f10d f4bd 3053 0e3e
00000340: b28c aabd 03e4 4d3e c8cc 73be da3d 373e
00000350: 7540 3fbd 18e4 4ebe 324a 4dbe 65d5 013e
00000360: 45f5 c9bd ce50 5abd a752 073e 8436 c3bd
00000370: 1858 353e f9ba b43d 2df2 fc3d 3fae 71be
00000380: 597d a8bd 00fb 42be 1317 19be de88 83be
00000390: 1427 813e bf8c debc 9e6e ec3d 21e8 453e
000003a0: 6ebf bbbc cc74 1dbc 8402 823d 2c82 723e
000003b0: f80b 45bd 8609 54be d18a 233e 22de 763e
000003c0: 90cf 243e 5a6d 3b3e 003d 71bd fc5d e33d
000003d0: f13f db3d 532c 73be f242 9dbd c583 8bbd
000003e0: bc2a fbbd 581c a6bd be2b c8bd 7988 303e
000003f0: 6591 26be 4b20 d33d 78ea 07be 2092 323e
-0.06254221 0.2258498 -0.18889028 -0.093384504 0.03700039 -0.015627561 0.011165733 -0.09006293
0.028835652 0.13231766 -0.13305904 0.26184288 0.21225463 -0.21395922 0.12364729 0.0051503484
0.23785286 -0.048505906 0.13579169 -0.082857735 0.0015940717 0.07890532 0.15670247 -0.04167535
0.1166866 0.20870031 0.26365367 0.12966608 -0.015578125 0.007620725 -0.008128119 0.03599223
0.119454816 0.023432376 0.15700293 0.17446336 -0.11307921 0.08701476 0.22865608 -0.094396204
0.2308902 -0.14868622 0.023536555 -0.047213867 0.12486009 0.1215028 -0.022288717 -0.16003379
0.10647421 0.003155768 0.19147639 -0.00053951854 -0.12606 0.10782686 -0.2506186 -0.060550705
0.104219496 -0.017163586 -0.019166442 -0.19957936 0.10620518 -0.0478888 -0.009991385 -0.19898614
0.06805955 -0.11300992 -0.010699289 -0.15503573 -0.00138959 0.077885166 -0.04182866 0.33025005
-0.0047113216 0.13385308 0.050496764 0.029631795 0.017233076 -0.027174246 0.09650923 -0.19727406
0.11071899 -0.21888982 0.099079706 -0.07914642 0.14410013 0.10994831 -0.002778252 -0.030121224
0.101247765 -0.018925348 -0.05470476 0.04684854 -0.09305113 -0.027678847 -0.18074566 0.14648186
0.26942667 0.054542888 -0.09365687 -0.030551206 -0.17089537 0.02591991 -0.14671679 -0.1187597
-0.07313457 -0.065834574 -0.16931485 0.13455848 0.11735749 -0.10351556 -0.15494508 -0.08714733
-0.12829964 -0.053887304 0.19953239 0.008420817 0.0821495 0.06192698 -0.11967939 0.0023307553
0.09326585 0.16086683 -0.054879423 0.09647075 0.057379037 0.04015638 -0.373557 -0.013003987
0.16214925 -0.18909189 0.13355193 0.09491512 0.08737311 -0.1265907 0.07448446 -0.08532941
0.18395564 -0.13224219 0.09770846 -0.09488519 -0.014754177 0.052034706 -0.20304964 0.14607446
-0.15898286 0.09376033 -0.019904718 0.10866423 -0.13263746 -0.07517615 -0.1739129 0.14860721
0.090009496 -0.043121643 0.16146822 -0.2183192 0.18916519 0.0004740577 0.10198528 -0.21182624
0.02600205 -0.18560769 -0.12303114 -0.20690045 0.21079296 -0.16990887 -0.0136814015 0.14624852
-0.051301375 0.18238805 0.033812363 0.068399444 -0.031349625 -0.17711501 0.12605159 0.08897691
0.08817478 0.2182445 -0.1847722 -0.014542043 0.13312082 -0.0127344355 -0.30048394 -0.18644096
-0.27225187 -0.112323724 0.118023895 0.25139612 -0.05681811 0.2910939 -0.022779409 0.203359
0.24331072 -0.055429798 0.1436772 0.17670496 0.102106005 0.027829837 0.12833056 0.065654546
0.11684164 -0.20286672 0.17775127 -0.029468141 -0.14661793 0.17159003 -0.119167216 0.13898921
-0.08327617 0.20106511 -0.23808587 0.17894688 -0.04669233 -0.20204198 -0.20047835 0.1267906
-0.098612346 -0.053299718 0.13215123 -0.095318824 0.17709386 0.08824725 0.12350879 -0.23601626
-0.08227033 -0.19041061 -0.14950208 -0.2569036 0.25225127 -0.027166722 0.11544536 0.19326831
-0.02291843 -0.009610366 0.06348136 0.23682469 -0.048107117 -0.20706758 0.15970923 0.24108174
0.16094804 0.18303433 -0.058896065 0.111019105 0.10705555 -0.23747377 -0.076787844 -0.068122424
-0.1226401 -0.08110875 -0.09773968 0.1723956 -0.16266401 0.10308894 -0.13273036 0.17438555

rnn.bias_ih f4 [192]
00000000: 2f0e 15bd d720 1ebe e031 473e 47d8 283e
00000010: 5617 c4bc 7c3a 85bd bcdd cb3c 96bf 363d
00000020: 420b cc3d fdce 17bd 3f6f 2bbc bbab 093c
00000030: 784a 513e 2261 29be ea65 95bb bf9d 6a3d
00000040: b013 173d 98be b0b8 f16e 0b3d 7905 fb3d
00000050: c6df 963d 1756 bd3d 150e a7bd d8e6 863d
00000060: b55f 1b3e 2c04 e53d aea3 4cbd a298 01be
00000070: aa3f 7a3e 25a5 6b3c 354b 803e eaf0 7e3c
00000080: ccda 08bd d8c1 03be 2386 89bd 7875 7abd
00000090: dfeb 213d 04d7 5cbd cf6c 6b3d 90ac b53d
000000a0: 8542 4cbc 0541 863d 73e6 e3bb 50be 9b3d
000000b0: 72d1 803d 36de b83d fa91 233e 51b4 603d
000000c0: da20 e03e 751d 423d a249 1f3e 708e 17bd
000000d0: 3ea7 f8bb 02da ff3c 803d 0b3e e884 b53d
000000e0: 9a36 33bd 6580 273d 808f 50bd d156 863b
000000f0: f9a5 8abc 2ecf e9bd 3606 6c3d 9260 df3d
00000100: 17c2 29bf 36bb 2e3e 0cf4 cbbe 7dbc dabe
00000110: 85fb b6bc dac2 0c3d d8dc 88be ae26 bb3e
00000120: 48d1 bbbe 253e d4be 17b0 213e 1f87 cdbb
00000130: f1d3 11bf a256 9dbe a526 31be 58dd 18bf
00000140: 49ad 343e 71d8 01be 26d2 95be 51d3 38be
00000150: b7c1 07bf c02c 1abf bdad eb3d bd1e e1be
00000160: baf3 52bf 20d3 02bf 3178 1f3e 7e5e 34be
00000170: f705 30bf 7b93 683e 51ed 1cbf f519 a3be
00000180: 8a2d 0e3e 4618 c6be 16e3 94be 9fd8 41be
00000190: 8c33 bfbe f302 03be 5fe9 d93c 3ec7 60be
000001a0: cdd9 f13b 59c3 643e 4f45 1dbf 410e ff3c
000001b0: e987 60bf 17fd 713e 77dd a0be 862d dcbe
000001c0: 8764 e7be d7f7 21be 36be cfbd f37c 41bf
000001d0: 20f5 073e cf40 adbd 4132 d13c 55bd 3b3e
000001e0: 66ea 44be 532f acbe 1935 a13e e167 92be
000001f0: 747b 663e a960 bbbd e7c7 913e 5c7e 14bf
00000200: 9138 203e c3f9 6e3d 852e eb3d 1ade d13d
00000210: 5eda 4f3c af55 bbbd 4872 c63d c839 683d
00000220: ee5e 203e 99e6 0dbe 0b1f d13c e1e9 2bbd
00000230: b0ec a0be 7fa3 543e c221 953b 6c29 383e
00000240: 0e64 81bd 9edf a23d d16a 763d a6da ef3d
00000250: 3676 77be 2ab5 7dbd 8084 973d 4e8e 6e3e
00000260: 2b1d 41be 15b5 6bbd a576 8c3d ccda 86be
00000270: c05d ae3c a239 d03d fc6b cc3e a0ce 8a3c
00000280: 5db6 ebbd 0a23 f5bc f75b 38bd 07b0 a1be
00000290: 07d9 7f3d 0ff6 8cbd c612 fe3d 3836 093e
000002a0: 89f3 e83d f629 143e e2ef a73e e3c4 20bd
000002b0: 9781 05be c5a3 f7bd e5e6 123e 8c33 193e
000002c0: 87a5 063e a010 473e 0ec9 73be 235c fe3e
000002d0: 7cba 0e3b 2010 6cbe 07e2 4a3d 270d 413b
000002e0: bc0c 55be d64b 6dbd fb9d aabc 5c69 90bd
000002f0: 251d bbbd c078 ee3d 9572 87bc bcc8 c03e
-0.03639048 -0.15442215 0.1945262 0.16488753 -0.023936909 -0.06505296 0.024886005 0.044616304
0.09963085 -0.037062634 -0.010463535 0.00840276 0.20438564 -0.1654096 -0.0045592682 0.057279345
0.03688401 -8.427835e-05 0.03404135 0.12256903 0.073669 0.09244936 -0.08156983 0.06586999
0.15173228 0.11182436 -0.049960785 -0.12655881 0.24438348 0.014382635 0.25057378 0.015560368
-0.033411786 -0.12866914 -0.06715038 -0.061147183 0.039531585 -0.053915992 0.057476815 0.08870804
-0.012467031 0.0655537 -0.006954962 0.076046586 0.062899485 0.090267584 0.15973654 0.054859463
0.43775064 0.047391374 0.15555432 -0.037001073 -0.007588296 0.031231884 0.13597679 0.088632405
-0.043753244 0.04089393 -0.050918102 0.004099705 -0.016924845 -0.114164695 0.05762311 0.10907091
-0.6631178 0.17063603 -0.3983463 -0.4272193 -0.02233673 0.034365512 -0.2673099 0.36552948
-0.36683106 -0.41453663 0.15789829 -0.006272211 -0.5696402 -0.30730158 -0.17299898 -0.59712744
0.17644228 -0.12680222 -0.29261893 -0.18049361 -0.5302996 -0.60224533 0.11507747 -0.43968764
-0.8240315 -0.511034 0.15573193 -0.17614171 -0.687591 0.2271251 -0.61299616 -0.3185574
0.1388456 -0.38690394 -0.29079503 -0.1893029 -0.37344015 -0.12794094 0.026600538 -0.21951005
0.0073807 0.22340144 -0.6143388 0.031134726 -0.8770738 0.23631702 -0.31418964 -0.43003482
-0.45193884 -0.158172 -0.10143702 -0.7558128 0.13277102 -0.08459627 0.025536658 0.18333943
-0.19230041 -0.33629856 0.31485823 -0.28594878 0.22508031 -0.09149296 0.28472826 -0.5800531
0.15646578 0.05834366 0.11483482 0.10247441 0.01268634 -0.09147202 0.09689766 0.05669573
0.15661213 -0.13857497 0.025527498 -0.04197109 -0.31430578 0.20765494 0.0045511434 0.17984551
-0.06317912 0.07952808 0.06016046 0.11711626 -0.24166188 -0.06194035 0.07398319 0.23296472
-0.18858783 -0.05754574 0.06858567 -0.26338804 0.021284938 0.101672426 0.39926136 0.01694423
-0.115093924 -0.029923934 -0.04500958 -0.3157961 0.062462833 -0.068828695 0.124059245 0.13399589
0.11374576 0.14469132 0.32800204 -0.039250266 -0.13037716 -0.120917834 0.14345892 0.1496107
0.13149081 0.19439936 -0.23807165 0.4967967 0.0021778634 -0.23053026 0.049531963 0.0029457302
-0.20805639 -0.05793365 -0.020827284 -0.07051346 -0.09136418 0.11644125 -0.01653413 0.37653148

rnn.bias_hh f4 [192]
00000000: 84c9 7b3c cc5e 9fbc 2c7d 123e 9118 b13d
00000010: 6854 873d b019 95bd 31f6 0d3d 0bdc c9bd
00000020: dec4 ed3d 2bc6 cc3d 031a f7bd f7c3 e73b
00000030: 7c31 1c3e 8a9a 04be 5a7f 0b3e b483 923e
00000040: 2cc9 fd3d ed53 47bc 1ec8 8b3d f394 b3bd
00000050: 0967 8fbc 8fc5 ab3d 41bd a73b 8511 fbbc
00000060: 7fad 333e 0b4f 543d 681e 223e 473c cbbd
00000070: 600e f53b d9e7 6e3d c513 093e 27d4 85bb
00000080: 55d0 66be 5228 de3d 126d 013d 7896 523d
00000090: 072a 293e 6aee 0cbb aba6 5fbd 6dc4 2fbd
000000a0: 8d4b 103e 1b0e 853d 2a5b 853d 7493 aebd
000000b0: 0a95 bd3d 1068 7bbd a264 be3c be14 2e3e
000000c0: 721f a73e fc23 9b3d dad8 313e 150f 903d
000000d0: 9aeb e4bd ab7d c63d d117 003e 16b4 b33d
000000e0: a379 a4bd f76c 77bd c359 1a3e b6b1 42bd
000000f0: f6a6 7d3d 4838 d4bd 0dcd b2bd daed 7a3e
00000100: b33a 43bf 765e 213e dae0 ddbe 8dc3 d2be
00000110: 9a47 78bd 5653 7dbd 68ae d3be 48a2 8b3e
00000120: 25f5 4dbe f1d0 9dbe 0677 823e 58bb 073e
00000130: e5df 28bf 562d 86be f5f9 4bbe b21b 2cbf
00000140: af48 d83d 6c69 32be 2cb1 87be 8b56 5fbe
00000150: ce7f 43bf a645 04bf 536c 873d fe5d 65be
00000160: e450 4ebf e93d fbbe bd1a 223e 781b 1fbe
00000170: ef0b 4ebf 85f7 393e 1df5 f2be 1118 58be
00000180: 688b 7b3e be42 bcbe bae6 8bbe 991a a0be
00000190: 68ce 9bbe ebd4 69be 8fb1 3e3e 886c 71be
000001a0: 95d9 de3d 6988 233e 3f75 33bf b14c 98bd
000001b0: ad44 67bf 4768 2d3e 0947 e1be a300 0bbf
000001c0: a3b7 f6be 0d59 1bbe a6ee c8bd 45bb 5cbf
000001d0: 54da 2abd 1537 83bc 2803 b43d b253 c53d
000001e0: 4870 14be b834 57be 8b2b 953e 33f9 f6be
000001f0: de15 663e c4b5 3bbd f3d6 ac3e 8f22 1ebf
00000200: 5a25 013f f921 773c 8735 823d 8b24 223d
00000210: bb1e 423e d4eb a3bd 190f 83bd 575d c1bd
00000220: f00e 313d 44c5 b3be eaad 7cbc dfe6 87bd
00000230: d6ef d9be f71e 343c d755 ffbd d594 1d3e
00000240: 1deb 8a3d 1d71 a73e 55d1 21be 9359 0b3e
00000250: 9fab 81be e1c2 47be 80a6 5e3d 8d31 5d3e
00000260: 9d7a 12be a1c9 913c 546f 80bd d084 f8bd
00000270: 0ffc ed3e 92a7 b23d 47bb d33e 2111 35be
00000280: 56bf b93d e45f 2fbe 2342 bebd e5a4 79be
00000290: 41ab 133e c3aa 4fbe b39f 503c 523b c43d
000002a0: 3805 85b8 ef5d 963d 0aeb be3d e120 103e
000002b0: 1ebf 48be 681f 0cbd be6b 1b3e a95a 2c3e
000002c0: d5df 083e a4a6 d03d bff4 86be 785a aa3e
000002d0: 6134 a9bd 249e 27be 907c 12be baa0 d0bd
000002e0: b8d0 743d d281 a3bc fc67 033d 7d86 9c3e
000002f0: dae6 bfbd 2641 c0bd ad9d 8dbd 32bf d33e
0.015367869 -0.019454382 0.14305562 0.08647264 0.06607896 -0.0728029 0.034658615 -0.09856423
0.11609815 0.09998735 -0.12065508 0.0070729214 0.15253252 -0.12949577 0.136228 0.28616107
0.12391886 -0.012166006 0.06825279 -0.08768644 -0.017505186 0.08387291 0.0051189964 -0.030648002
0.17546652 0.051833194 0.15831912 -0.09923606 0.0074785203 0.058326576 0.13386448 -0.0040841284
-0.2254041 0.10847534 0.03159816 0.05141303 0.16519938 -0.002150441 -0.054602306 -0.042911936
0.1409132 0.06496831 0.06511529 -0.08524218 0.092569426 -0.06137854 0.023241345 0.170001
0.32641178 0.07575223 0.17367879 0.07034127 -0.1117775 0.09691938 0.12509085 0.08774583
-0.08031013 -0.06040665 0.15073304 -0.04753276 0.061926804 -0.10362297 -0.087305166 0.24504796
-0.7626144 0.1575869 -0.4333561 -0.41164818 -0.06061516 -0.061847053 -0.41344 0.27272248
-0.20113046 -0.30823472 0.25481433 0.1325506 -0.65966636 -0.26206464 -0.1991957 -0.6722976
0.10560738 -0.17423028 -0.2650236 -0.21810357 -0.7636689 -0.51668775 0.06612458 -0.22399136
-0.8059218 -0.4907067 0.15830512 -0.15537822 -0.8048696 0.18160827 -0.47452632 -0.2110293
0.24564898 -0.3676967 -0.27324468 -0.31270292 -0.30430913 -0.22835128 0.1862242 -0.23576558
0.10881344 0.15970005 -0.7010078 -0.07436503 -0.90339166 0.1693431 -0.43999508 -0.54297847
-0.4818698 -0.15170689 -0.098111436 -0.8622325 -0.04171212 -0.016017476 0.087896645 0.09635104
-0.14495957 -0.21016204 0.29134783 -0.48237 0.22469279 -0.045827642 0.33757743 -0.6177148
0.5044762 0.015083783 0.06357866 0.03958563 0.18957035 -0.08003965 -0.06399364 -0.09441631
0.043227136 -0.3511144 -0.015422324 -0.06635832 -0.42565793 0.010993711 -0.124675445 0.15388806
0.067831255 0.32703486 -0.1580251 0.13608389 -0.2532625 -0.19507934 0.054358006 0.21600933
-0.14304586 0.01779634 -0.06271234 -0.12134707 0.46481368 0.08723368 0.4135382 -0.17682315
0.090696976 -0.17126423 -0.09289958 -0.24379309 0.14420797 -0.20279984 0.012733388 0.09581627
-6.342906e-05 0.07342135 0.09322174 0.14075042 -0.19604155 -0.03420964 0.15177819 0.16831459
0.13366635 0.10188034 -0.263586 0.33272147 -0.082619436 -0.1636892 -0.1430533 -0.10186906
0.059769362 -0.019959364 0.03208159 0.30571356 -0.09370203 -0.09387426 -0.0691484 0.41356808

fc2.weight f4 [5, 64]
00000000: 2243 98bd edaf 9b3d 413d 38be 3cae d5bd
00000010: dcd4 7fbe 6c78 103e cad6 62be 5015 b3be
00000020: 290c d3bd 2a77 d73d 939f 1cbe cfdb 4b3e
00000030: 414d 723e b79e 85be 906d 443e 0bee fbbd
00000040: a0b6 8d3d 136a 34be f086 1a3e 7aa2 82be
00000050: 6ac9 7d3e 1054 8d3e 1db0 933e 0cf3 79bd
00000060: cafc 1f3e 5b05 053e c940 433e e260 813e
00000070: c1c2 04be 25c0 e93d 20ae 33be a022 6d3e
00000080: 8fe9 573e e785 7b3e 34bf 8d3e 782e 803e
00000090: b740 6abd 4555 b43d 78fc 423e 715b 87be
000000a0: 12c4 9a3e 5de6 d9bd 68b4 2abe b66c 41be
000000b0: 492b 4e3e 312b 943d f478 f1bd 6eb4 10be
000000c0: 40cd a1be c739 5bbe 3285 d53c 3f43 22be
000000d0: af0d 84be 71b5 6d3e 49d5 e4bd 7969 58be
000000e0: 62b8 873e f0f3 7f3e d1f4 b93d 997f e4bd
000000f0: 4c94 303e 923c 70be 2f6b 683e 8042 44be
00000100: 6d11 96be 62df 623e ab06 01be cf6b 4dbe
00000110: e4b6 24be c00e 6e3e a1ad 83be 27de 69be
00000120: 38bb 44be f565 6b3e 00ec 2fbe 95c6 983d
00000130: 661b 283e 4e52 42be a043 6d3e 4057 cabd
00000140: 2c0f 0d3e 3876 bbbd 608b 5c3e dc18 34be
00000150: a0be 433e 3198 6b3e 00aa c13d b074 54be
00000160: f33d c03d f299 b53d ac98 203e 7d6f aa3d
00000170: 13f4 2abe 6752 c03d dacb 57be eae2 ce3d
00000180: 68d4 6bbb 348b 2d3e 1546 9f3e 4154 823e
00000190: 07cf 3abe cafa 3e3d 1659 923e daf4 c9bd
000001a0: 2105 703e 08d5 f9bd c14e 44be f5b0 6ebe
000001b0: a937 9b3d ca01 673e 522e 35be 5a36 82be
000001c0: 2be0 41be d48f 4dbe 664c 1d3e 1557 39be
000001d0: 4617 33be 08e5 4e3e 5b6e 20be e24f 7ebe
000001e0: 1454 363e 2104 8d3e 2ec8 723e 5f64 90be
000001f0: 1586 363e eb66 48be bd44 8a3e 2431 51be
00000200: 428c 2cbe ba85 843e 7894 69be d845 60be
00000210: 54ec 36be c325 cb3d 62bc 2cbe fcb2 2bbe
00000220: 8de4 5bbe 65a9 6b3e 76e6 4cbe 63ef 273e
00000230: a3ab 113e 575c 90bd 222d 873e f92d 6cbe
00000240: a99e 873e 3c31 46be 81a2 973d 0f15 07be
00000250: 4d87 9e3d 9de9 633e 8056 573d 4bc1 72be
00000260: 26f3 5e3e d091 7d3e 8156 4c3e 0716 6e3e
00000270: f5af 49be 5e3e 573e 81c0 73be 1d72 603e
00000280: dd19 47bc e5e2 0d3d 6314 903e a6c9 b23d
00000290: 803f 50be 3de3 373e f099 4a3e 98ec 82be
000002a0: d229 6f3e 33ab 31be 8224 59be 6210 58be
000002b0: c6ea 603e d074 f73d 8ad7 0fbe 0f77 f2bd
000002c0: f693 4abe 3d5a 47bd 407b 423e a97c 49be
000002d0: 7438 52be c73c 123e 6e60 09be c29d 8bbe
000002e0: 89ef 303e a1e6 093e f5f6 3a3e afcd 9abe
000002f0: 6280 213e ddf9 86be 637f 403e 495c 41be
00000300: 0286 81be 0b0d 713e 5755 d6bd 291a 82be
00000310: e6d9 46be aaa6 bb3d dbfb 7dbe 6e99 87be
00000320: 6c4e 6bbe e78a 003e 7302 60be 5a6f 063e
00000330: 84fb 5d3e ace7 36be 7998 9f3e 0d8b 2ebe
00000340: 3f1a 693e ae8a ffbd 087c 433e 49b8 51be
00000350: e8bc 1e3e 5384 493e e86a 8e3e 99ee 56be
00000360: bcf8 073e b497 763e 575f 4e3e 007b 423e
00000370: 5c6d fcbd 29ff 1f3e 10e2 05be d2eb 533e
00000380: 3e1f 043d 6751 4e3e 46ba 833e 8a07 f93d
00000390: e638 2bbd c87f 423e 8a8b 853e 3400 6fbe
000003a0: 69bc 683e d422 aebd a89d d6bd ecc5 47be
000003b0: f50b 493e e1a1 523e 13ae 40be 5b28 5bbe
000003c0: f9a3 58be dea3 dfbd c445 7e3e 55d4 68be
000003d0: 089c 01be 14fd 383e c217 57be 7d5b 8ebd
000003e0: 16ac 823e 5a20 603e bee2 353e 9f4f 0bbe
000003f0: ed85 0a3e 73c4 fcbd 6b20 223e 310e a3bc
-0.074346796 0.076019146 -0.17992117 -0.10433623 -0.24983543 0.14108437 -0.22152248 -0.34977198
-0.10305054 0.105207756 -0.15295248 0.19908069 0.23662283 -0.26097652 0.1918242 -0.123012625
0.069195986 -0.17618589 0.15090537 -0.25514585 0.24783865 0.27603197 0.288453 -0.061022803
0.15623775 0.12990324 0.19067682 0.25269228 -0.12964918 0.11413602 -0.17546892 0.2315774
0.2108519 0.24562798 0.2768494 0.25035453 -0.057190623 0.08805326 0.19041622 -0.26436952
0.30227715 -0.106396414 -0.16670382 -0.18889126 0.201337 0.072348006 -0.11790648 -0.14131328
-0.31601906 -0.21408759 0.026064489 -0.15845965 -0.2579169 0.23213746 -0.111734934 -0.21133985
0.2650786 0.24995399 0.09079898 -0.1115715 0.17244071 -0.23460606 0.22697137 -0.19165993
-0.2931017 0.22155526 -0.126002 -0.20060657 -0.16085392 0.23247814 -0.25718406 -0.2283865
-0.19212043 0.22988112 -0.1717987 0.074597515 0.16416702 -0.18976709 0.23170328 -0.09879923
0.13775319 -0.09153408 0.21537542 -0.17587608 0.19115686 0.23007275 0.09456253 -0.20747638
0.09386816 0.08867253 0.1568324 0.08322046 -0.1669467 0.09390717 -0.21073857 0.10101874
-0.0035984758 0.16947633 0.31108156 0.25454906 -0.18243037 0.04662589 0.28583592 -0.09861155
0.23439457 -0.121988356 -0.19170667 -0.23309691 0.07578976 0.22559276 -0.17693451 -0.25432092
-0.1893317 -0.20074397 0.15361175 -0.18099625 -0.17489347 0.20204556 -0.15667097 -0.2483516
0.17805511 0.27542213 0.23709175 -0.28201577 0.17824586 -0.1957051 0.27005568 -0.20428902
-0.16850379 0.25883275 -0.22810543 -0.21901643 -0.1786359 0.09919312 -0.16868737 -0.16767496
-0.21473904 0.23013838 -0.20009789 0.16399913 0.1422563 -0.070488624 0.2640162 -0.23064412
0.26488236 -0.19354719 0.07404042 -0.13191627 0.0774065 0.22257085 0.052572727 -0.23706548
0.21772441 0.24762654 0.19954874 0.2325059 -0.19696029 0.21019885 -0.23803903 0.21918531
-0.012152162 0.03464021 0.28140554 0.08729868 -0.20336723 0.17957778 0.19785285 -0.25571132
0.23355797 -0.17350464 -0.21205333 -0.211 0.21964559 0.12082827 -0.14047065 -0.11839115
-0.19783005 -0.048670042 0.18992329 -0.1967646 -0.20529348 0.14280997 -0.13415691 -0.27268797
0.17278875 0.13466884 0.18258269 -0.3023505 0.1577163 -0.26362506 0.18798594 -0.1888286
-0.25297552 0.23540132 -0.10465496 -0.25410584 -0.19419059 0.09162648 -0.24803106 -0.26484245
-0.22979134 0.12552987 -0.21875934 0.13128415 0.21677977 -0.17861813 0.31171015 -0.17045231
0.22763918 -0.12477623 0.19090283 -0.20480455 0.1550175 0.19679384 0.27815938 -0.20989455
0.13278478 0.24081308 0.20153557 0.18992233 -0.12325546 0.1562468 -0.13074517 0.20695427
0.032256357 0.2014824 0.25728053 0.12159641 -0.04180231 0.18994057 0.26083022 -0.23339921
0.22728123 -0.08502737 -0.10479289 -0.19509095 0.19633467 0.20569564 -0.18816404 -0.21402113
-0.211563 -0.10919927 0.24831301 -0.22737248 -0.12657177 0.18065292 -0.21005157 -0.06951044
0.25521916 0.21887341 0.17762277 -0.13604592 0.13527651 -0.12342157 0.15832679 -0.019904228

fc2.bias f4 [5]
00000000: 65ed 66bd 8c98 afbd 54d7 09bd 488b d4bd
00000010: b192 0bbe
-0.05637874 -0.08574018 -0.03365262 -0.10378128 -0.13630177
