parameters/VDN/49000/agent_1st_stage_pump_params.pt (torch, 107440 bytes, 8 tensors)

fc1.weight f4 [64, 10]
000000 4f fa 52 be 7b bc 8a be 08 d1 8d 3e 6f 2d bd 3d
       -0.20603298 -0.27096924 0.2769854 0.092371814
000010 27 01 22 bd da 2f 58 3d 18 9f 91 be 4c 60 5f bd
       -0.03955188 0.05278001 -0.2844169 -0.054535195
000020 82 23 97 be 3b 77 65 be 2d e3 48 be e1 b8 bf 3e
       -0.29519278 -0.22408764 -0.1961791 0.3744574
000030 60 1d c8 bd 3f c2 5e be 70 51 6c 3e 1a 88 5a be
       -0.09771228 -0.21753787 0.23077941 -0.21340981
000040 0a 5a 2f be a1 f6 84 bd ce 9a d9 3c 60 fa cc 3d
       -0.17124191 -0.06492353 0.026563074 0.10008693
000050 c6 41 43 be cd 5a ab be 78 34 95 3d dd 15 88 be
       -0.1906806 -0.33467713 0.07285398 -0.2657918
000060 62 0c 3f 3e 6f ed 00 3e cb f1 94 3e b4 44 e4 bd
       0.18657067 0.12590574 0.29090723 -0.111459166
000070 a3 93 50 3e 55 9b 51 bd 74 59 51 be c8 ce f6 bc
       0.20368819 -0.051173527 -0.2044428 -0.030127898
000080 20 75 28 bd fb ed 80 be cc 84 f8 bd e1 be d4 3c
       -0.041127324 -0.25181565 -0.12134704 0.025969924
000090 5f 85 a8 bd 67 3b 5e 3e 71 c3 70 3d 25 60 9a be
       -0.082285635 0.21702348 0.058780137 -0.30151477
0000a0 5c 48 c3 3c 4f 03 9f 3e dc 54 3f 3d 76 57 70 3c
       0.023838215 0.31057212 0.046711788 0.01466929
0000b0 13 63 8b 3e 97 88 3d 3e 92 b0 65 be 59 e9 60 3b
       0.27224025 0.18509136 -0.22430637 0.0034318774
0000c0 a0 b1 e5 bc ae 70 57 be 8f 25 c7 bd be 7f 85 3e
       -0.0280388 -0.21039078 -0.097239606 0.26074022
0000d0 d0 a3 a4 bd 58 19 a2 bd 17 d1 1f be d5 44 55 be
       -0.08039057 -0.0791499 -0.15607105 -0.20827039
0000e0 1b 59 9b bd 9e 9c 62 3d b5 1e e2 3d 0a 02 a8 3e
       -0.07585355 0.055325143 0.11041013 0.32814056
0000f0 87 e9 34 be f0 59 da 3c 95 3e 23 3e ef b9 8a be
       -0.17667209 0.026654214 0.15941842 -0.2709498
000100 e6 08 41 be b8 0d 8e 3d 84 d3 4c 3e df b7 ed 3c
       -0.1885105 0.069362104 0.20002562 0.02901834
000110 30 77 12 bd 75 e9 67 3e 70 9d 7a be f4 a0 c2 3d
       -0.035758197 0.2264765 -0.2447412 0.095033556
000120 05 0b 5e 3e f8 93 57 3e a0 19 1c 3d d3 97 b2 3e
       0.21683891 0.2105254 0.038110375 0.34881458
000130 ab f6 d8 bd 9f 9c e6 3b 08 cc b2 3e 0a 2c 33 bd
       -0.10593923 0.0070377137 0.34921288 -0.04374317
000140 7d 60 6f be 88 3e 29 3e 24 64 87 3d 3e 96 9a be
       -0.23376651 0.1652776 0.06610897 -0.3019275
000150 c3 12 87 bc 69 4b 7d be 71 19 bd bd 81 5e 21 3c
       -0.016488438 -0.24735798 -0.09233368 0.009849192
000160 de a3 84 3e df 2f 3d be 9e d0 64 3e 5a 7b 77 3e
       0.2590627 -0.18475293 0.22345206 0.24168149
000170 c0 f6 a9 3e 7b 65 02 be 6e 8c 9c 3e 18 8f 3b be
       0.33196068 -0.12734024 0.3057589 -0.18316305
000180 90 b1 13 bd 5b e2 3d 3e 63 bc 1b 3e df 14 e9 bd
       -0.03605801 0.18543379 0.15208583 -0.11380934
000190 3f 28 c3 bd 10 3d ef 3e 2f f3 06 3e e8 27 4c 3e
       -0.09529161 0.46726274 0.13178705 0.19937098
0001a0 13 60 54 be ad 58 a1 3e 7a 32 4a bd 8f f7 39 be
       -0.20739774 0.31512967 -0.049364544 -0.18160842
0001b0 1a de 9f bd ad e3 3c 3e c6 5e 53 be ed 2c 0c be
       -0.078060344 0.18446226 -0.20641622 -0.13689013
0001c0 f6 1a d2 3d ab 46 cd 3e c6 4b ba bd ba dc 70 3e
       0.10259049 0.40092978 -0.09096484 0.235217
0001d0 71 06 55 be 6a 20 fe bd 2d fe 19 3e d0 59 40 3d
       -0.20803238 -0.12408526 0.15038367 0.046960652
0001e0 82 3c 5f be c3 94 d8 3c 5d 37 9a 3e 63 6d 2d be
       -0.21800426 0.026438123 0.30120364 -0.16936259
0001f0 66 16 ea bb 0c 2b 10 3e a3 21 a5 3e d7 ac fe 3b
       -0.0071437834 0.14078921 0.32252225 0.007772069
000200 d3 71 a7 be e9 b8 24 3e 30 fc 2a bd 9e 99 af 3e
       -0.32704028 0.16086163 -0.04174441 0.34296888
000210 57 a4 90 3c 26 f7 73 be e3 16 7a 3d 8f f9 c4 3d
       0.017656488 -0.23824748 0.061056983 0.09617912
000220 35 7d a3 3e dc 11 52 be 7a ab 22 3e 6c 5d da 3c
       0.31931463 -0.20514625 0.15885726 0.026655875
000230 9f ab 4b be a0 55 2a 3e 14 ad 59 3d b2 36 d6 3d
       -0.19889687 0.16634226 0.053143576 0.10459651
000240 8f 19 e2 3e 4d 6b 37 bd 8d db 5d 3e d3 67 0f be
       0.44160125 -0.044780064 0.21665783 -0.1400445
000250 9c 28 9f 3d dd 37 39 be 87 70 99 be 4a a1 94 3e
       0.077714175 -0.18087716 -0.29968664 0.29029304
000260 41 a7 9c 3d a7 be 92 3d b8 34 12 bd f9 c9 81 be
       0.07649089 0.0716527 -0.035694808 -0.25349405
000270 6a c3 77 be fe d8 c1 3b 66 fa 15 be 84 20 98 be
       -0.24195638 0.00591576 -0.146463 -0.29712307
000280 48 4d 1c be a6 c4 2f be 2d 66 4f 3e 4e 31 09 bd
       -0.15263855 -0.17164859 0.2025382 -0.033494286
000290 ad 0d a4 3e b1 d0 04 be e3 31 6b 3e 8b a6 f3 bd
       0.32041684 -0.12970234 0.22968249 -0.11897
0002a0 13 c3 13 3b 6e 4b 7e 3e b0 22 8b 3d d6 2e 85 bd
       0.0022546693 0.24833462 0.067937255 -0.06503074
0002b0 dd dd c0 3c b9 9d ab bd 7d b6 47 3e c6 03 63 be
       0.023543293 -0.083796926 0.19503208 -0.22169408
0002c0 3c 28 a2 bd 63 c7 7b be ee 84 68 3e 89 55 2f 3e
       -0.0791783 -0.24587779 0.22706959 0.17122473
0002d0 0d d4 a5 be 67 d6 22 3e c6 30 88 3d c5 96 06 bd
       -0.32388344 0.159021 0.06649928 -0.03285863
0002e0 a8 6b e1 3d 27 74 83 be 0a b7 22 3e 4b 74 9c 3e
       0.11006862 -0.25674555 0.15890136 0.30557474
0002f0 4d 35 c0 bd a9 18 29 bc f0 91 70 3e 34 4d 1d 3e
       -0.09385166 -0.010320821 0.2349317 0.15361482
000300 4e e1 a7 3e fe e2 cc 3d 9a 64 a1 bd 52 d3 36 3e
       0.3278908 0.10004233 -0.07880516 0.1785405
000310 1b 6d fc 3d fb 2c 0f bd 45 43 00 3e 41 3b 36 be
       0.12325498 -0.034955006 0.12525661 -0.17796041
000320 d7 e6 51 bd ba 72 da 3d b0 54 73 3d 72 fa 00 be
       -0.051245537 0.106664136 0.059406936 -0.12595537
000330 1b 3a 9f 3c 0d 2f 13 be 7f 95 33 3e 14 fa 60 3e
       0.019436887 -0.14373417 0.17537497 0.21970397
000340 6c 13 7b 3e 25 ce b3 bc fb b0 98 3d e3 99 74 3e
       0.24519128 -0.021948883 0.07455631 0.23886828
000350 15 81 cf 3d dc 0e 9b 3e b5 b5 09 3e 73 99 8b be
       0.10132042 0.30284774 0.13448222 -0.2726551
000360 f5 f3 42 3e 0f 4b 63 be b3 ad c9 3d 8b 96 a2 bd
       0.19038375 -0.22196601 0.098475836 -0.0793887
000370 0d 4c 37 3e cb 11 69 bd 1a 35 c6 bd a7 a5 aa 3e
       0.17900105 -0.056901734 -0.09678097 0.33329508
000380 27 75 bf 3e 8c d3 16 3d 29 bb 73 3e 34 26 a1 3e
       0.37394068 0.03682284 0.23801865 0.3147446
000390 48 6d 2f 3e 7b 1d dd bb 98 c4 84 be 6e f9 00 3e
       0.17131531 -0.006747899 -0.2593124 0.1259515
0003a0 24 55 80 bc 94 ff 15 3d 2a 20 71 be de 6a 01 bd
       -0.015665598 0.03662069 -0.23547426 -0.031596057
0003b0 ba 6e f6 bd 32 36 4d 3e ba 0d d3 bb dc 8f 87 be
       -0.12032838 0.20040205 -0.0064408453 -0.26476943
0003c0 1a 82 9a 3e b8 5e 40 be 7e 12 bb bc 5f 71 fa 3d
       0.30177385 -0.18786132 -0.022835966 0.12228655
0003d0 da b0 2a 3e 83 41 0a 3e 5d 2b 2e 3e 80 f9 68 bb
       0.16669026 0.13501553 0.1700873 -0.0035549104
0003e0 f9 dc 43 be ca f8 59 3c a2 95 5a be bc 7e 6b be
       -0.19127263 0.013303945 -0.21346143 -0.22997564
0003f0 39 e8 72 3d 85 18 3a 3e a8 54 8d 3e 64 a8 ef bd
       0.059303496 0.18173416 0.2760365 -0.1170204

fc1.bias f4 [64]
000000 9b f7 17 3d eb 4e b4 3e 54 41 13 3e 43 cf 4d 3d
       0.03710137 0.3521646 0.1438039 0.05024649
000010 6a e2 6a 3e 2e d6 c1 3d 8b 4f 86 bd 73 c5 8c 3e
       0.22937933 0.0946468 -0.0655814 0.27494392
000020 f2 01 cb 3e 71 b0 8d be d9 74 c3 3d 85 2d 82 bd
       0.39649922 -0.27673677 0.09543771 -0.063563384
000030 c6 f3 0d be 83 36 22 3e 8b 99 cc 3d a1 f3 87 be
       -0.13862523 0.15841107 0.099902235 -0.26553062
000040 cd f3 83 be 27 ea 9c 3e 6e 6e 8a 3d c4 23 94 3d
       -0.25771943 0.30647394 0.06759344 0.07233384
000050 73 87 34 3e a9 50 87 be 6b a2 bd 3d 2d 4a db 3c
       0.17629795 -0.26428726 0.092594944 0.026768768
000060 09 2f cb 3e 21 2b bc 3e 4a 44 98 be 5a ae 45 be
       0.39684322 0.36751655 -0.297396 -0.19304791
000070 13 95 ba 3e bd 64 88 be 49 b3 ed 3d 08 b1 0b 3e
       0.3644186 -0.26639357 0.116064616 0.13641751
000080 3b 67 c8 bd df bb 2f 3e f1 49 03 3e 93 a2 18 be
       -0.09785315 0.17161511 0.12821175 -0.14905767
000090 5e 7c 7d be 73 83 a4 3e a0 21 af 3e 9b a2 71 be
       -0.24754474 0.32131538 0.3420534 -0.23597185
0000a0 9c a3 85 be 82 b3 bc bd 1a 71 1b be 37 8f d0 bb
       -0.26101387 -0.09213926 -0.15179864 -0.006364729
0000b0 9e e0 a7 ba 3b 93 54 3e e7 c2 9f be 63 a6 84 be
       -0.001280803 0.20759289 -0.31203386 -0.25908193
0000c0 c6 6c 42 be 9f 13 3a be 32 fd 7f be d0 6b 61 3d
       -0.18986806 -0.18171547 -0.2499893 0.05503446
0000d0 65 83 56 bd bf 32 58 be 65 fb 4e 3e bd 55 6a 3e
       -0.0523714 -0.21113108 0.20213087 0.22884269
0000e0 f3 f1 b1 3e 31 76 26 be 57 1c 02 be 55 f9 a5 bd
       0.34754905 -0.16256024 -0.12706123 -0.08104197
0000f0 56 f7 9d 3e 33 c5 a3 3e 15 7c 10 3e 0a 49 5e be
       0.30852765 0.3198639 0.14109834 -0.2170755

rnn.weight_ih f4 [192, 64]
000000 c8 53 29 bd 9a 67 ed 3d e0 a1 ae 3d 90 77 b6 bd
       -0.041339666 0.11592026 0.08526969 -0.089095235
000010 58 05 84 3e 34 ed 3f 3d f0 2c a6 bd 35 0a fd 3d
       0.25785327 0.046857074 -0.0811404 0.123554625
000020 ef 9e 23 3e ee 01 29 3f 6a c3 99 3c bd 69 55 be
       0.15978597 0.6601857 0.018769938 -0.20841117
000030 fb e8 1b 3e f2 4c 1f 3e ac 40 9f 3d b8 53 eb bd
       0.15225594 0.15556696 0.07776007 -0.114905775
000040 92 5f 93 3e 65 51 d8 3b 29 49 77 3d 1f b2 12 3e
       0.28783852 0.0066015 0.060372505 0.1432576
000050 5b 36 a6 3d 25 52 44 3e 29 59 1e 3e e2 3f a5 3d
       0.08115836 0.1917196 0.154637 0.08068825
000060 11 22 2a 3e 69 b6 10 3d ac 80 f8 3d 46 ee 93 3d
       0.16614558 0.03533021 0.12133917 0.072231814
000070 1f 70 82 3d 18 16 77 3d 73 a5 f3 3c d4 b0 13 3e
       0.06369042 0.060323805 0.029741978 0.14422923
000080 37 87 d6 3d 2c 27 2d 3e e5 0f 95 ba ba 75 e9 bd
       0.10475009 0.16909474 -0.0011372535 -0.11399408
000090 9e ea c5 bd 79 26 ff 3d 3e 73 fc ba 05 65 ba be
       -0.0966389 0.1245851 -0.0019260419 -0.36405197
0000a0 d2 8f 89 bd 7a 5e bd 3d 07 93 1a 3d 4a 81 3f 3d
       -0.06716885 0.092465356 0.037737872 0.04675416
0000b0 e8 f8 ab bc c8 fc 0f 3e d8 41 ff 3d 78 78 da bd
       -0.020992711 0.14061272 0.124637306 -0.10667509
0000c0 3c 36 c7 bb 67 3c d9 3d 9b 5c 28 3e 16 18 55 3d
       -0.0060794633 0.10607224 0.16441576 0.052024923
0000d0 ad 65 2f 3e a2 fb 94 3d 3e 29 2d 3d 38 61 26 3e
       0.1712863 0.07274558 0.04227566 0.16248024
0000e0 2f 1a 92 bc 92 f9 c2 3d f0 eb fd 3e 4c 2a a0 bd
       -0.017834751 0.09520258 0.4959407 -0.078205675
0000f0 7b bb c4 be b4 d2 50 3e d3 f8 e0 3c a3 24 5f be
       -0.38424286 0.20392877 0.027462399 -0.2179132
000100 04 50 1b bd a7 8d fb 3d 4e a1 d5 bd f0 0c 8b 3c
       -0.037918106 0.122828774 -0.10431157 0.016973943
000110 1e f6 f1 3b 45 33 bf 3d fc d9 df 3c d6 b5 c2 3d
       0.007384076 0.09335951 0.027325623 0.09507339
000120 ea a5 bd 3d bd 24 bf 3e a8 14 be 3c a7 64 39 3e
       0.09260161 0.37332717 0.023203209 0.18104802
000130 af f0 a9 3d a2 33 aa 3d 01 a4 a0 bc 38 3d c5 3d
       0.0829786 0.083106294 -0.019609453 0.09630817
000140 58 fa 7d 3c e1 65 cf bd 67 97 7e bc b1 83 7e 3c
       0.015501581 -0.10126854 -0.015539027 0.015534327
000150 af e9 08 bb bb 24 06 bc ab 52 14 3e 20 ca 06 bc
       -0.002089124 -0.008187468 0.1448466 -0.008226901
000160 7c 5e f6 3d ed 98 d0 3c 24 df 55 bd f7 12 4e 3d
       0.1202974 0.025463546 -0.052214757 0.050311055
000170 59 f1 e7 3d 1e 1c 99 3e c9 c2 0c 3e ac 19 18 be
       0.1132533 0.29904264 0.1374618 -0.14853543
000180 9c 7a c4 3c 68 bb 2f 3d e0 8b c1 3d 90 f7 bb bd
       0.023984246 0.042903334 0.09450507 -0.09178078
000190 d6 85 ab 3d 7f 3f d5 3c 65 f3 f0 3d 3c d6 a2 bb
       0.083751366 0.026031254 0.11765174 -0.0049693864
0001a0 d8 08 00 bd 02 95 91 bd f2 27 d0 bd a7 3d f5 3d
       -0.031258434 -0.07108499 -0.10163869 0.1197465
0001b0 ec 71 61 3d 4c ca 01 3e 3c 2e a3 bd c8 91 31 3d
       0.055040285 0.12674826 -0.07967803 0.04335192
0001c0 b2 01 29 bd 2a 07 2c 3e 26 4d d4 3e 0c 2f 05 be
       -0.041261382 0.16799608 0.4146511 -0.13006228
0001d0 0b 18 0f bd ae e4 d7 bd 2c 08 d8 3c e0 28 6d 3d
       -0.03493504 -0.10541664 0.026371084 0.05790031
0001e0 51 6d e7 3d e8 bf 64 bd 79 5a 43 3e 1c 61 dd bd
       0.11300147 -0.05584708 0.19077481 -0.10809538
0001f0 b0 40 8f 3d 2a 11 63 3d c9 9f ce 3b 9e 03 05 3e
       0.0699476 0.05543629 0.006305669 0.12989661
000200 c0 37 f1 3b 9e 00 a9 3d 00 b1 42 be 0c 11 6c 3d
       0.0073613822 0.08252071 -0.19012833 0.057633445
000210 6b c1 b7 3d 92 d3 d2 3d e1 82 69 bd 93 fb 7e bc
       0.089724384 0.1029426 -0.05700958 -0.01556291
000220 67 63 b2 3d 0f 18 da 3e 50 88 15 3e 53 58 9c 3d
       0.08710366 0.4259648 0.1460278 0.07634034
000230 b2 4b 0b be 25 20 ef 3a 68 76 9e bb 68 1f 97 3d
       -0.13603094 0.0018243833 -0.0048358925 0.07379037
000240 ab 93 c4 bd 75 46 90 bd 3e 15 bc bc b9 8f f0 3d
       -0.09598478 -0.070446886 -0.022959348 0.11746163
000250 87 58 83 bd 6f 36 11 3e 0d 25 4a 3d 18 7d 9d bd
       -0.064133696 0.14180921 0.04935174 -0.07689875
000260 76 f4 8d 3d 47 7f b6 bc 38 a0 85 bc e1 6e d5 3d
       0.06931393 -0.022277487 -0.01631175 0.10421539
000270 00 a0 0e 3e 8a 54 1a 3d 4f 45 3b bd 22 e2 37 bc
       0.13928223 0.03767828 -0.045720395 -0.011223348
000280 b0 ad c6 3c e5 d3 0b be 01 88 d9 3d c4 4a a5 bd
       0.024252743 -0.1365505 0.10621644 -0.08070901
000290 6c 1e f7 3d 26 53 77 bd dc c4 5e 3d 4b 14 f0 3c
       0.120663494 -0.06038203 0.05438696 0.029306551
0002a0 74 2f 07 bd 9c 88 53 3d 10 39 dd ba 5f 19 84 bd
       -0.03300424 0.051643953 -0.0016877968 -0.06450152
0002b0 b8 a0 a1 bc 96 a0 70 bd 08 68 c6 bc 1c a9 ab bd
       -0.019729957 -0.058746897 -0.024219528 -0.083818644
0002c0 da 67 20 3e 64 4b 0c 3e f5 c3 89 3d 20 95 30 be
       0.15664616 0.13700634 0.06726829 -0.17244387
0002d0 2b b3 91 3e fc 40 8d 3d ff 23 4e 3e a9 1c b6 3d
       0.28457007 0.068971604 0.20130919 0.08892185
0002e0 6e b9 41 3d 56 66 95 bd 96 42 d0 3e 62 2f b1 bd
       0.04729598 -0.0729491 0.406758 -0.08651616
0002f0 1a 3f 96 3c b1 7f 84 3d 6f f9 04 bd 33 fe 2b 3e
       0.018340636 0.06469668 -0.03246444 0.16796188
000300 40 44 5e 3b 35 48 28 3e bb 45 33 bd 96 96 a1 bd
       0.0033915192 0.16433795 -0.043767672 -0.0789005
000310 35 68 b9 3d a0 b1 25 bc a2 99 f5 3d 63 b7 f9 3d
       0.09053079 -0.01011315 0.11992194 0.12193181
000320 bb 90 ad ba 93 e1 8a 3e 58 28 7a bc cc 6e 91 be
       -0.0013241986 0.27125224 -0.015268408 -0.28404844
000330 ab 53 49 3d 94 01 06 3e 1d b7 ca 3d 14 97 9c bd
       0.049152058 0.1308654 0.09898207 -0.07646003
000340 c9 4f 22 3e 69 55 70 3e 42 e2 f6 bc ad 59 c2 3d
       0.15850748 0.23470081 -0.030137185 0.094897605
000350 8a c7 8f 3c 49 5e 46 be 69 cc f8 3d 44 99 d5 3d
       0.017551202 -0.19371904 0.12148363 0.10429624
000360 be d5 2e 3e ec a0 f2 3d 86 b3 a3 bd 1a 59 08 bf
       0.17073724 0.118471 -0.07993226 -0.5326096
000370 ab d2 95 3b b9 a3 3a be 28 78 64 3e 92 c0 28 3d
       0.0045722327 -0.18226518 0.22311461 0.041199274
000380 6c 0a 98 3d 8b cd 75 3e 6c e4 db 3d 10 06 bf bd
       0.07423863 0.2400419 0.107369274 -0.09327328
000390 f8 4b da bc 5a 30 be 3d a0 bd 68 3e 7d 96 81 bd
       -0.026647553 0.09286566 0.22728586 -0.063275315
0003a0 80 24 30 bb 00 da 6f 3d ff 35 bf bd 2c 38 72 3e
       -0.0026877224 0.05855751 -0.09336471 0.2365424
0003b0 4e 89 ec bd 8d 39 c0 3d 6c cb d4 3d 80 87 c4 3a
       -0.11549626 0.09385977 0.10390362 0.0014993995
0003c0 e3 b0 19 bc af 88 d0 3d 89 eb 1c bc 24 df cb 3d
       -0.009380552 0.1018232 -0.00957764 0.0995467
0003d0 c6 e7 b8 3d 40 42 21 bc 51 8f 1a 3e 5b a5 55 3e
       0.09028582 -0.009842455 0.15093733 0.2086386
0003e0 b4 98 f0 3d 0e f7 94 bd e1 b0 b9 3d e0 f2 c7 bd
       0.11747876 -0.072736844 0.0906694 -0.097631216
0003f0 fd 03 cd bd 49 37 3e bb 3b c6 23 3e f8 b9 60 be
       -0.10010526 -0.0029024652 0.15993588 -0.21945941

rnn.weight_hh f4 [192, 64]
000000 ef 71 fe 3c d2 dc 1d 3e 1f 95 97 bd d7 26 92 bd
       0.031060187 0.15416268 -0.074014895 -0.07136314
000010 0a 77 cc bc cd f8 03 3e 0f c0 65 bd 6e 88 75 bd
       -0.024959106 0.12887879 -0.056091364 -0.059944563
000020 c0 ca e1 bc e7 12 9c bd 04 d7 97 bd 35 ed 95 bb
       -0.027562499 -0.07620793 -0.07414058 -0.0045753964
000030 12 36 36 ba 17 77 d0 3d 5f 2a 1b be 04 40 c2 bd
       -0.0006950806 0.101789646 -0.15152882 -0.09484866
000040 c2 00 8a bd 35 a0 f7 bc c3 34 11 be 7e f5 d2 3c
       -0.06738426 -0.03022776 -0.14180283 0.025751825
000050 3b 2a 9a bc 1b be dd bb db fa 04 3e a1 3f b9 bd
       -0.018818965 -0.006767047 0.12986319 -0.090453394
000060 82 09 d4 bd ce 8b 0c be 86 02 82 3c 75 4c 25 3d
       -0.10353376 -0.13725206 0.015870344 0.04035612
000070 ae 5b 17 be dd 77 62 bd 1a 2f 07 3e 14 55 0f 3c
       -0.14781067 -0.05529009 0.13201562 0.008748312
000080 50 11 b3 3d a3 26 e9 3c 98 af d5 3c 5c c1 bd 3d
       0.087435365 0.028460806 0.026084706 0.09265396
000090 a8 d5 d1 3a ff 19 07 be c1 55 42 3e af c7 c5 3d
       0.0016009109 -0.1319351 0.18978025 0.09657227
0000a0 e8 ac 75 bd ae 3f 06 bd cb 2c 44 bd 59 7a 7d 3d
       -0.05997935 -0.032775573 -0.04789428 0.061884258
0000b0 48 6f 34 3e 53 1f a1 bd 16 d1 de 3d 0b 4d 5c 3d
       0.17620575 -0.07867303 0.10879724 0.05378441
0000c0 13 66 ee bd 29 ec c4 bb b3 90 6b bd 3f c2 23 3d
       -0.11640563 -0.006009598 -0.057511043 0.03998017
0000d0 d4 93 1f bd fe 24 8c 3d 78 0f 66 3d 9e a7 33 bc
       -0.03895934 0.06842993 0.056167096 -0.010965256
0000e0 42 8c f5 3d 87 08 b6 bb 71 4d 2f bd 12 3d 47 be
       0.11989643 -0.0055552158 -0.042798463 -0.1945689
0000f0 0d 01 c6 3d fc ee bc 3d 8f 7e a2 bd 8b d5 59 3e
       0.09668169 0.0922527 -0.079342954 0.21272866
000100 38 2b c0 3d 2f 52 ba 3e d8 6e 53 be ae f0 9e bd
       0.09383243 0.36390826 -0.20647752 -0.0776075
000110 78 44 80 bc ba 9a 01 be 60 37 dd bd 99 55 7d 3b
       -0.015657648 -0.1265668 -0.108015776 0.0038655757
000120 80 dc fa bc f9 d3 4b bd b9 46 92 3c 73 2d d6 bd
       -0.03062272 -0.0497627 0.017855989 -0.104578875
000130 3a 1e 9c bd a6 21 19 3d bb df fa bd e2 12 05 bd
       -0.07622953 0.037385605 -0.122497045 -0.03248871
000140 76 f0 04 be 0d 4f 3d 3d 44 46 ab ba c5 c9 4a 3d
       -0.12982354 0.046217967 -0.0013067205 0.04950883
000150 71 9a 86 bc b6 3e 7d 3c eb f6 91 3d cd 00 e0 3d
       -0.016431065 0.015456846 0.07127174 0.10937653
000160 11 d6 bc bd 50 4a 0f be 18 48 87 3c de b0 2e bd
       -0.092205174 -0.13993192 0.01651387 -0.042649142
000170 bc 61 bd 3d 69 85 a6 3d 0b b2 17 3e 5e 93 53 be
       0.09247157 0.08130915 0.14814012 -0.20661685
000180 6f 25 8d bd e8 d0 7e bd 8d f0 17 bd bd 25 1e 3e
       -0.068919055 -0.062210947 -0.03709464 0.15444084
000190 3c 98 bc bc 3d c5 d8 bd e5 01 69 bd 72 c1 87 3e
       -0.02302181 -0.10584495 -0.056886572 0.26514775
0001a0 0f 72 15 bd cb 47 0c 3c e6 67 a4 bc 5e f7 99 bd
       -0.036485728 0.008562039 -0.020069074 -0.07517885
0001b0 0c 9e a8 bc 8f 1d 4f 3d 12 fb 86 3d 3c 87 f2 3d
       -0.020583175 0.0505653 0.065908566 0.118422
0001c0 4f c1 99 bd d8 f6 20 be ca 50 ae bd 8f 10 b1 3c
       -0.07507574 -0.15719163 -0.08511503 0.021614341
0001d0 3d 57 f5 3c a8 77 8c bd 45 81 2a 3d b0 3d cc 3b
       0.029948825 -0.0685876 0.041627187 0.0062329397
0001e0 1b 43 c5 3d 5c dd 9d bd de 1f ad 3c 6b 71 a4 3b
       0.0963194 -0.077082366 0.02113336 0.0050184033
0001f0 fa 9d 93 3d 20 fd 32 3d 3a d7 1c bd d0 61 3a 3e
       0.07207866 0.04369843 -0.038291194 0.18201375
000200 83 56 34 3d 28 48 4e bd a3 84 9c bd 35 e6 03 3d
       0.044027817 -0.050361782 -0.07642486 0.032201964
000210 69 51 27 3e a0 09 1e bc e6 bc 34 3d 70 27 52 bd
       0.1633965 -0.0096458495 0.04412546 -0.05130714
000220 eb 3b 0d bd de 03 b7 3d 2b 64 5e 3d 11 d6 38 3d
       -0.03448097 0.089362845 0.054294746 0.045126025
000230 94 33 c8 3c 36 75 48 3e 75 f7 aa bc aa fe 09 be
       0.024438657 0.19575962 -0.02086995 -0.13476053
000240 26 e8 b1 bd e5 28 ac bd 1b 1d d4 3c ff 74 4a 3e
       -0.08686857 -0.084062375 0.025892785 0.19771193
000250 4a 08 96 bd 64 7a 0a 3e 82 9a a5 3d e7 94 3c bd
       -0.073258 0.13523251 0.08086111 -0.04604044
000260 b0 d7 a9 bd 0a c5 81 bd d8 0d f5 3c ca 87 7f 3d
       -0.08293092 -0.0633641 0.029913828 0.062385358
000270 be eb 47 3e 1e ad 78 bd d4 a1 d9 bd 26 0a 8b bd
       0.19523522 -0.060711972 -0.106265694 -0.06789045
000280 5d 1c 0e 3d e6 f2 03 bd 6a 82 57 3d 08 b1 22 3e
       0.034695018 -0.032214068 0.052614607 0.15887845
000290 c0 0d 12 3e 52 46 dd 3a fa 96 26 3e e5 ff 90 3e
       0.14263058 0.0016881919 0.1626853 0.28320232
0002a0 ef 25 c3 bd a6 fe c8 3c eb 30 19 3d 4c 61 a4 3d
       -0.0952872 0.024535488 0.037400167 0.080263704
0002b0 2c be 8b 3d 1c cd 47 bd b5 1b 00 3e e2 b4 7a 3b
       0.06823382 -0.048779592 0.1251057 0.0038254787
0002c0 b8 73 26 bc 8f 71 12 be 77 62 0f be 53 a8 23 3e
       -0.010159425 -0.14301132 -0.14002405 0.1598218
0002d0 b8 e2 07 be 39 3c 89 39 33 9f a6 bc 18 55 d9 bd
       -0.1327008 0.00026175546 -0.020339584 -0.106119335
0002e0 6e dc b8 3d b9 f5 f5 bd ae 0c d9 bd 1a b6 e3 bd
       0.090264186 -0.120097585 -0.105981216 -0.111187175
0002f0 7e 34 84 3d 98 52 88 bb fe bc 53 3c 5d 1d 1e 3e
       0.064553246 -0.0041602366 0.012923477 0.15440889
000300 18 a4 70 bd f5 42 42 3d a1 98 1f bd 9b dd 42 3b
       -0.058750242 0.047427136 -0.038963918 0.0029734138
000310 6b e7 18 3e 2c 8d 9b 39 ca 21 2f be 88 da 91 bc
       0.14932029 0.00029669085 -0.17102733 -0.0178044
000320 20 49 f1 bc a7 4c 7e bd f6 9f d8 3d 4d 5f 63 3d
       -0.029453814 -0.06208482 0.10577385 0.055510808
000330 05 5b ea 3c 3f 9c 15 bd d6 02 1b 3d f7 d3 dc 3c
       0.028607855 -0.03652596 0.0378445 0.026956541
000340 8d 57 8c bc 41 c8 6c bd 71 4a 09 bc a7 01 31 3c
       -0.017131591 -0.057808165 -0.008379565 0.010803617
000350 6d b5 cc 3d 0a d0 e1 bc 93 59 af 3d 51 56 65 3d
       0.09995542 -0.027565021 0.08562007 0.05599052
000360 93 9d e2 bd c0 e0 b8 bd f1 fc 93 3d 7a 86 47 be
       -0.11065211 -0.09027243 0.07225979 -0.19484892
000370 b5 7c 1b 3e e0 71 7e bc c1 5e cd bd 20 85 df 3c
       0.1518429 -0.01553008 -0.100278385 0.027285159
000380 d3 47 20 3e 9f 5c 0a be 1a 4d c2 3d 74 18 b6 bc
       0.15652399 -0.13511895 0.09487362 -0.022228457
000390 a7 b8 b2 3d c6 de 78 bd b7 0a 15 bd 0f b1 33 bd
       0.08726626 -0.06075933 -0.03638717 -0.043870028
0003a0 eb 0f 11 be d0 d0 a6 3d 09 28 88 bd c9 20 12 3d
       -0.14166228 0.081452966 -0.06648261 0.035675798
0003b0 b2 e2 1e 3d 22 88 0b be a2 48 bd bb 1d 9f 5b 3d
       0.038790412 -0.1362615 -0.005776481 0.05361854
0003c0 ee 7b e2 bc 63 33 cf bd d0 1f 15 3c 11 58 f7 3d
       -0.027646985 -0.10117223 0.009101823 0.12077344
0003d0 6c 9f 66 3b 80 b5 86 3d 07 88 8d 3d ce 1f 93 bd
       0.0035190238 0.06577587 0.06910711 -0.07183801
0003e0 b5 4e b4 3d 25 8d 1f be 4f f8 eb 3d ee 9c 22 be
       0.08804075 -0.15581186 0.115219705 -0.15880176
0003f0 16 8a 5d bd e4 46 bd 3d bc 75 74 3b e4 07 d5 3c
       -0.054086767 0.09242037 0.003730162 0.02600474

rnn.bias_ih f4 [192]
000000 b4 43 1f 3d e7 c2 aa 3d ef cd b8 bc b2 f5 6e 3e
       0.038882926 0.08337956 -0.022559134 0.23335913
000010 3b ca e4 3c 03 94 9f 3d c9 3d 5b 3d b6 1e 3e bd
       0.027928462 0.07791903 0.05352572 -0.046416007
000020 73 85 fc bc 64 9a a1 bd b0 14 f0 3c a1 15 84 bd
       -0.030825352 -0.07890776 0.02930674 -0.06449438
000030 eb a4 a9 3d 40 16 bf 3d 6e d1 88 bd bb ad ab bd
       0.08283409 0.09330416 -0.066805705 -0.08382746
000040 72 3c b0 bb bd 9b cc 3d 83 f3 33 3e 34 c2 45 3d
       -0.0053782994 0.09990642 0.17573361 0.04828091
000050 11 39 86 bc 27 a2 59 bd 87 5c 20 3e 7e 41 00 3e
       -0.016384633 -0.053133156 0.15660296 0.12524983
000060 d4 0e d3 3d db ad 23 3d b4 cd 49 3c 6d da 13 3d
       0.103055626 0.039960723 0.01231711 0.03609698
000070 9e 1f cb 3d bf 6e b1 3d 41 10 54 3d ce 38 03 3e
       0.0991814 0.08663701 0.051773313 0.12814638
000080 39 49 da 3d 42 93 24 3e 04 2a ff bc ba e2 db bd
       0.10658497 0.160718 -0.031147964 -0.10736604
000090 4e 57 38 3e ee 24 32 3e dc bf b6 3c e3 7b 9b 3b
       0.18002054 0.173969 0.022308283 0.004744993
0000a0 2e a3 47 bd 42 bd 1d be d4 4b 88 3d 9f 4b ee 3c
       -0.048739605 -0.15404227 0.06655088 0.029088793
0000b0 b8 03 59 3e 82 34 cb 3d 1c 0a 18 3d 04 f5 ea 3d
       0.21192825 0.099221244 0.037119016 0.11472514
0000c0 d8 1e 00 3e b9 88 d2 3d 8c 8f dd 3d 3e 9f b8 3d
       0.12511766 0.10279984 0.10818395 0.09014748
0000d0 f3 dd ab bb 71 b0 84 3e 1b cc ca 3c 66 50 c0 bd
       -0.0052449643 0.25915864 0.024755528 -0.09390335
0000e0 07 93 83 3d 6e 40 b8 3d 70 cf c8 3d 5b 92 29 bc
       0.064245276 0.08996664 0.098051906 -0.010349835
0000f0 9a 54 06 3c 65 e0 26 3e 95 62 3f 3e 1a 36 14 bd
       0.0081988815 0.16296537 0.1868995 -0.036184408
000100 90 a6 af be 1b 84 de 3d 4b 00 2b 3e 59 f1 58 bf
       -0.34306765 0.10865041 0.1669933 -0.8474327
000110 29 d4 ce be 53 0d 89 be 45 30 11 bf b3 52 09 be
       -0.4039624 -0.26767978 -0.5671428 -0.13410453
000120 e5 e2 8d be 5d d7 19 be 7a 3f 4c be 27 2f c1 bd
       -0.2771217 -0.15023561 -0.1994609 -0.09432822
000130 f7 20 bb be dc 3d 7e 3e de 3f bd bc 3e 59 4d be
       -0.36548588 0.24828285 -0.023101743 -0.20053574
000140 6d d0 36 bd e2 0d de be 40 cb a1 be 90 cc 47 3e
       -0.044632364 -0.43369967 -0.3160038 0.19511628
000150 f6 e8 1b bf ac 0d a0 bd 67 d5 c4 3c b5 b9 0c bf
       -0.60902345 -0.07815108 0.02402754 -0.54970866
000160 38 f0 53 bf 7e 79 43 be f2 6b dd be 6d 7d 85 3d
       -0.8278842 -0.19089314 -0.43246418 0.06518064
000170 f6 74 a6 be cd 42 1c bf b6 94 97 be 1c f4 47 3e
       -0.3251111 -0.6103943 -0.29605645 0.19526714
000180 31 6b de be 66 6d fc 3d b9 dd c0 be 90 be 88 be
       -0.43441156 0.123255536 -0.3766916 -0.26707888
000190 65 3e 03 bf 14 7a 04 be aa 7c 6b be d8 cf 55 3e
       -0.5126708 -0.12937194 -0.22996774 0.20880067
0001a0 0f 85 6c 3d d2 a3 ba be 08 c5 68 bf 83 a3 5e be
       0.057744082 -0.3645311 -0.90925646 -0.21742062
0001b0 a4 05 a8 be 8f 09 58 be 1d 75 c1 be 45 29 5c be
       -0.32816803 -0.21097396 -0.37784663 -0.21500118
0001c0 93 48 ac 3d 48 5f 5c 3c c4 c3 3d bf 1b 49 80 3e
       0.0841228 0.013450451 -0.7412684 0.25055775
0001d0 57 00 8a be ab 8b 66 bf 78 dc 38 bf 08 54 c0 3b
       -0.26953384 -0.90056866 -0.7221141 0.0058693923
0001e0 ce 0b 56 bf 25 3d 03 3e 1f be 52 bf c6 c9 1a 3e
       -0.8361176 0.12816294 -0.8232135 0.15116033
0001f0 66 07 2f 3e 0c bf 34 3d e4 05 1e be 97 bd 55 3e
       0.17092666 0.04412751 -0.15431935 0.20873104
000200 48 cf fb bd 8e 4b 9a bd 5d d2 ad 3d 5f 64 bd be
       -0.12295395 -0.07533942 0.08487389 -0.3699064
000210 f3 e3 ba 3d 02 ea b3 bd 12 c2 ec be a0 37 08 3e
       0.09125509 -0.08784868 -0.46241814 0.13302469
000220 e4 12 29 3e aa 29 c5 bd 82 4b c7 bd 23 9a 17 be
       0.16511112 -0.096270874 -0.09731199 -0.14804892
000230 55 76 9d 3d f3 76 66 3d 8e be b0 bd c4 b8 e8 bd
       0.07688586 0.056265783 -0.086300954 -0.11363366
000240 97 9c 47 bc 73 a5 38 be 6a 30 f4 bd 7b 6f 51 bd
       -0.01218333 -0.18031864 -0.11923297 -0.051131707
000250 a0 6e 75 be 1f 6d 12 be e0 69 d1 3d a2 60 96 be
       -0.23967981 -0.14299439 0.10225272 -0.293706
000260 53 3f 90 be 07 f7 dc bd 0f 3f 6f be 9a 9b aa 3d
       -0.28173313 -0.10789304 -0.23363899 0.0833046
000270 03 a9 f6 3d 66 45 aa be 1b 17 b4 3d 1a 15 27 3d
       0.12043955 -0.33256072 0.087934695 0.04079161
000280 e5 ab 93 3e 2d 24 08 3b 71 64 28 3e 87 c1 fc bc
       0.28842083 0.0020773516 0.16444565 -0.030854
000290 6d b5 bd 3e 92 b9 38 be 97 a2 e8 bc 62 23 a6 3c
       0.3705248 -0.1803954 -0.028397841 0.020280544
0002a0 76 bc 91 3d dc 1f 40 3e 34 22 16 be 2f 4f 06 3e
       0.07116024 0.18762153 -0.14661485 0.13116144
0002b0 04 7e b9 3d db 6f 2c be c1 e6 16 be 90 01 98 bd
       0.09057239 -0.16839544 -0.14736463 -0.07422173
0002c0 15 84 6a bc 08 49 0b bb 75 60 b3 bd 98 0f 89 bd
       -0.014313717 -0.0021253247 -0.08758632 -0.066924274
0002d0 c2 97 fd bd 99 2d 8f be 49 18 c5 3e 6d e8 80 3d
       -0.12382461 -0.27964476 0.3849509 0.06294332
0002e0 32 bc b7 3e 0d 05 94 3d 46 9f b1 3e a5 5c 17 3c
       0.3588577 0.07227526 0.34691828 0.009238397
0002f0 fd 8b a2 3d 18 79 d1 bd 17 85 34 bd 12 97 71 3d
       0.07936857 -0.10228175 -0.044072237 0.058981963

rnn.bias_hh f4 [192]
000000 be 9a 5c 3d 39 00 fa 3d 17 39 e8 bc ad 28 db 3c
       0.05385851 0.12207074 -0.028347535 0.026752794
000010 db 05 95 3d cf 16 96 bc a0 d8 c0 bc 5d a7 f2 3d
       0.072765075 -0.018321423 -0.023540795 0.11848328
000020 dd 88 d3 3c 6d be 37 3d a8 74 ec bc 98 65 a1 3c
       0.025822097 0.04485934 -0.02886422 0.019701764
000030 9d 41 85 bd 51 a4 e2 3c cc 70 e1 3d d5 4b 15 bd
       -0.06506655 0.027666243 0.110078424 -0.036449272
000040 48 69 aa bd 73 f6 f0 3d 69 f4 d2 3d 84 ee c6 3c
       -0.08320862 0.117657565 0.10300524 0.024283655
000050 18 1e a8 bd 32 11 9e 3c f9 0e 01 3e ea 04 14 3e
       -0.08208865 0.019295309 0.12603368 0.14455
000060 42 5c 8f 3d c9 1f a7 3d 8b ee 81 3c ad f7 ca bd
       0.07000019 0.081603594 0.015860816 -0.09910522
000070 c0 45 e3 3d fe 08 7e 3e e4 d7 f2 3c 55 34 a7 bd
       0.11097288 0.24808118 0.02964396 -0.081642784
000080 cb 9c 83 3e 76 30 c8 3d 0d 32 12 3e f0 f4 05 3c
       0.2570556 0.09774868 0.14276905 0.008176073
000090 fd 79 3d 3d 43 06 c7 3d f7 7a 16 be f6 a1 7d bd
       0.046258915 0.09717991 -0.14695345 -0.061922036
0000a0 e5 dd ca 3d c0 8d 14 be 20 d5 2f 3d cb 6d c6 3c
       0.09905604 -0.14507198 0.04292786 0.024222275
0000b0 a1 cc b8 3d b2 fc 36 3c fa 4b ee bb d2 d0 22 3d
       0.09023405 0.011168646 -0.0072722407 0.039749928
0000c0 82 93 f7 3d d7 48 ac 3d d2 7b 5f 3a 09 73 47 3e
       0.12088682 0.084123306 0.00085252256 0.19477476
0000d0 2f 93 b8 3c ed 06 fd 3d aa 2b 45 3e 11 9b 39 bc
       0.02253112 0.123548366 0.19254938 -0.011328475
0000e0 70 1d f5 bc d8 15 ad bc 60 fd 50 bc 61 e0 c5 bd
       -0.029921263 -0.02112858 -0.012755722 -0.096619375
0000f0 6a 9c ee bd b3 2b 9c bd 16 78 f0 3d c4 13 c1 bc
       -0.11650927 -0.076255225 0.117416546 -0.023568995
000100 95 be 55 be 11 53 e8 3d 67 b6 ea 3d cf 3c 52 bf
       -0.20873483 0.11343969 0.11460572 -0.82124037
000110 a1 60 93 be 43 0b d0 bd 9f fb 12 bf ce 46 9d be
       -0.2878466 -0.10158398 -0.57415193 -0.30718082
000120 38 56 7f be e2 66 78 bd 7d 68 92 be e9 ff aa bd
       -0.24935234 -0.06064499 -0.28595343 -0.08349592
000130 dd c0 90 be 48 96 3a 3e 45 1e ee 3d d5 fe ce be
       -0.28272143 0.1822139 0.11626867 -0.40428796
000140 5f 1f 2a 3e 3e 73 78 be 3b 9d 4e be bc 94 6e 3d
       0.1661353 -0.24262711 -0.20177166 0.058247313
000150 d3 e4 fc be 63 cc 18 be e9 2a b0 3c e5 02 06 bf
       -0.4939333 -0.14921717 0.021504836 -0.52348167
000160 7a 48 27 bf 82 8b 25 be 8a 73 b6 be 9c e4 51 3e
       -0.65344965 -0.161665 -0.35635024 0.20497364
000170 21 e3 2a be 92 d4 e8 be ce d8 c0 be ee 6c bb 3d
       -0.16688205 -0.45474678 -0.3766541 0.09151636
000180 9b 07 bc be 77 f9 b7 3c 75 ef a9 be d6 50 73 be
       -0.36724553 0.022457821 -0.33190504 -0.23761305
000190 82 d6 02 bf be 8e ad be 46 84 8d be 58 c4 c8 3d
       -0.5110856 -0.33897966 -0.2763998 0.098030746
0001a0 c2 31 b9 3c f5 d1 6b be aa 7c 4d bf 85 ea b1 be
       0.022606734 -0.23029311 -0.8026835 -0.34749237
0001b0 69 ce 15 be f5 33 10 be 66 3c 77 be e8 ec 98 be
       -0.1462952 -0.1408232 -0.24144134 -0.29868245
0001c0 c7 8f d4 3c 06 a0 fd 3c 32 06 38 bf b6 34 51 3e
       0.025947465 0.030960094 -0.71884453 0.20430264
0001d0 19 2d 44 be eb 52 43 bf f8 5e 4e bf ff cd 4d 3e
       -0.19157828 -0.762984 -0.8061366 0.20098113
0001e0 42 48 3e bf 00 22 cc 3d ec d1 2e bf 14 a8 bb 3d
       -0.74329007 0.099674225 -0.68289065 0.09162918
0001f0 ba 73 84 3e bf 68 35 3e ea 9a 4c be 57 f9 16 3d
       0.25869542 0.17715739 -0.1998097 0.036858883
000200 ea d7 05 be 2f 3b 92 3d 6e 50 07 3d 21 df f1 be
       -0.13070646 0.071401946 0.033035688 -0.47240546
000210 c7 a4 c4 3d 97 f3 22 bd 78 4d b2 be e7 57 28 3e
       0.09601741 -0.039783087 -0.3482473 0.16439782
000220 99 c5 c7 bc d8 a0 9c 3d 33 bf 2a be 1d 4d 27 be
       -0.024386214 0.07647866 -0.16674499 -0.1633801
000230 41 92 34 3e a9 97 0b 3c 4c e3 51 bd 65 82 62 be
       0.17633916 0.008520045 -0.051242158 -0.22120054
000240 10 70 e7 bd 59 d7 65 be 38 ef 1d be fc 98 ca bc
       -0.11300671 -0.2244543 -0.15423286 -0.024731152
000250 1a 81 ae bd 97 c8 0a 3d 30 4d 40 bd d4 6e bd be
       -0.08520718 0.033882704 -0.04694861 -0.36998618
000260 e7 cf 35 be cc 5d b1 bd aa f1 f4 bd 39 a1 51 bd
       -0.1775509 -0.086604685 -0.11960156 -0.051179145
000270 a2 22 ad 3d 5d 41 c3 be 93 11 2f 3e cd 01 ac 3c
       0.08453871 -0.38135806 0.17096548 0.020996952
000280 ed ae 86 3e c3 db a2 3d 9d 59 6c 3e 75 05 1f 3e
       0.26305333 0.079520725 0.2308106 0.15529425
000290 db 4c 9e 3e 64 81 01 be 67 19 6a 3d d3 46 05 3d
       0.3091801 -0.12647015 0.05715313 0.032538246
0002a0 23 05 0c 3d 4a 42 e8 3c 0c 30 58 be 71 2c 35 3e
       0.034184586 0.028351922 -0.21112078 0.17692734
0002b0 af 5b 23 3e e5 13 cc bd 49 de a7 3b 76 05 c0 bd
       0.15952943 -0.09964732 0.005122934 -0.093760416
0002c0 0e cd 24 bd c6 6e bc bd 9e bb a7 bd b8 9f d9 bd
       -0.040234618 -0.09200816 -0.08190082 -0.10626167
0002d0 44 7c ef 3c f9 c7 cd be b4 42 c2 3e 31 90 20 bd
       0.02923406 -0.4019163 0.37941515 -0.03920001
0002e0 75 3d 53 3e 77 4f cb bd 09 29 98 3e bf 5a 9f 3c
       0.20628913 -0.09927266 0.29718807 0.01945245
0002f0 60 39 0b 3e 16 a9 f3 bd 44 c3 9f bd b4 e8 81 bd
       0.13596106 -0.11897485 -0.07800916 -0.06343213

fc2.weight f4 [5, 64]
000000 fa b4 6a 3e dc d9 bf be 44 3b 06 3e 1b 0a de 3d
       0.229206 -0.374709 0.13108546 0.10841771
000010 04 56 04 be 24 a4 eb 3e 31 e3 13 3e 56 0d ec bd
       -0.12923437 0.46023667 0.14442135 -0.11525981
000020 8c c4 c1 be 55 6c b9 3e cc 8d 2c 3f 95 e6 5a 3e
       -0.37845266 0.36215463 0.67403865 0.21377023
000030 15 d8 14 be 87 5a 70 be d7 9a 07 3e 33 ba 2a 3e
       -0.14535554 -0.23472033 0.1324266 0.16672592
000040 39 46 1c 3e 8e da 39 3e c0 0e 6c 3e 75 fa c8 bd
       0.15261163 0.18149778 0.23052502 -0.09813396
000050 8f d4 1c be 83 09 29 be 4c 35 a7 be 30 74 51 3e
       -0.1531546 -0.16507535 -0.3265785 0.20454478
000060 ff 8e 19 3e 16 65 3b 3e 0e f8 84 3d 9f 9d 0c 3e
       0.14995955 0.1830028 0.06492625 0.13732003
000070 75 74 a5 be 25 d6 11 3e 81 16 ba be 47 be 76 3e
       -0.32315412 0.14241846 -0.36345294 0.24096023
000080 19 1c 70 be 1c 57 7c 3e 4f 31 06 be df b0 25 be
       -0.23448218 0.24642605 -0.13104747 -0.16180752
000090 ef be 0f be f6 85 a2 3e f6 25 1b be b4 dd 59 be
       -0.14037679 0.3174283 -0.151512 -0.2127598
0000a0 c1 92 f4 3d d3 15 63 be d6 ab 85 3e 4e d0 84 be
       0.119420536 -0.22176294 0.26107663 -0.25940174
0000b0 cd 81 09 be d6 b9 93 3e 60 1a 28 3f ef 21 e3 3e
       -0.13428421 0.2885272 0.65665245 0.44361827
0000c0 b6 d9 4f 3e fe 9d 4c 3e 54 46 78 3e 01 e9 0c be
       0.20297894 0.19982144 0.24245578 -0.13760759
0000d0 89 9f a4 3e 64 63 63 3e 82 80 2f be 85 e0 99 3e
       0.32152966 0.22205883 -0.17138866 0.30054107
0000e0 78 ff 62 be f2 45 5b 3e a1 42 bd bd 3f 25 89 3d
       -0.22167766 0.21413401 -0.09241224 0.06696557
0000f0 7e 5d ef 3e 6e 15 92 be 1c e1 bc 3e 69 3b eb bd
       0.46751016 -0.28531975 0.36890495 -0.11485941
000100 4b e4 76 3e 4a 8b ed be 9d 2a 5f 3e 58 27 71 3e
       0.24110524 -0.46395332 0.217936 0.23550165
000110 80 ad 64 be ed 5b dc 3e 0b 37 c7 3d 16 5a 83 be
       -0.2233181 0.43038884 0.097272955 -0.25654668
000120 77 18 a9 be fb c0 c0 3e c3 ab 21 3f 81 a2 b0 3e
       -0.33026478 0.37647232 0.6315271 0.3449898
000130 38 8f 9e bd a5 67 36 be 2a 1a 0e 3e 2e 00 8a 3e
       -0.077421606 -0.17812975 0.13877168 0.26953262
000140 de a3 4f 3e 66 1e 52 3e 38 c2 67 3e 0d 38 6d be
       0.20277354 0.20519409 0.22632682 -0.23165913
000150 88 14 22 be c7 93 7a be 38 c2 ba be 52 d5 45 3e
       -0.15828145 -0.24470435 -0.36476302 0.19319656
000160 c8 82 28 3e c9 47 50 3e c0 ac 7b 3e ad f2 6a 3d
       0.16456139 0.20339884 0.24577618 0.05736034
000170 a8 7e 31 be 7f 3f 14 3e 58 ad 9e be df d0 32 3e
       -0.17333472 0.14477347 -0.30991626 0.1746249
000180 80 f2 3b be dd 46 35 3e cd d6 80 be 85 ac 7e be
       -0.18354225 0.17702813 -0.2516388 -0.24870498
000190 87 f2 d4 bd 58 4e be 3e 52 d7 88 bd 89 7b 18 be
       -0.10397821 0.37169147 -0.06681694 -0.14890875
0001a0 8b 77 87 3e 00 89 13 be 01 91 4a 3e eb 0c 07 bd
       0.26458392 -0.1440773 0.19781877 -0.032971304
0001b0 03 5c 64 be 8b ba 75 3e b8 85 13 3f 11 09 bc 3e
       -0.22300725 0.23996942 0.57625914 0.36725667
0001c0 81 0e 3a 3e f2 d7 26 3e 44 57 6a 3e 07 97 2e be
       0.18169595 0.16293314 0.22884852 -0.170498
0001d0 23 ee 33 3e 7d b0 e1 3d 8c 26 67 be 80 59 38 3e
       0.1757131 0.110199906 -0.22573298 0.18002892
0001e0 75 6b 02 bd b4 91 76 3e c5 8e db bd b9 f7 3e 3e
       -0.03184076 0.24079019 -0.107205905 0.18649186
0001f0 79 b1 f9 3e 55 ec 1e be e9 ce e4 3e 1f 73 10 be
       0.48768213 -0.15519841 0.4468911 -0.14106415
000200 16 36 c5 3e 20 96 e8 be a7 a5 35 3e e4 8c f8 3d
       0.38517827 -0.45427036 0.17738973 0.12136248
000210 9a ac 87 be 40 a2 87 3e 99 1d 75 3e 10 34 95 be
       -0.26498872 0.26490974 0.23937072 -0.29141283
000220 ce 7c e4 be 5d 7b a1 3e 08 4f 0a 3f ce 54 9c 3e
       -0.44626468 0.3153943 0.5402684 0.3053345
000230 3c 85 6e be 06 4b c8 bd cf da 95 3e bf 6e 8a 3e
       -0.23293012 -0.097799346 0.292685 0.27037618
000240 3c 24 f7 3d 80 0a 8c 3d c1 9f 1c 3e 5a ba 01 be
       0.12067458 0.0683794 0.15295316 -0.12668744
000250 9f 1e 0c be c9 b7 a0 be 6b c3 c1 be 45 73 c4 3c
       -0.13683556 -0.31390217 -0.37844405 0.023980746
000260 1a a0 e5 3d 09 3c 28 3e ad 70 86 3e e7 d5 84 3e
       0.112121776 0.16429152 0.2625784 0.25944445
000270 2c 78 6d be 64 1a 17 3e 41 f3 86 be 17 0a 1e 3e
       -0.23190373 0.14756161 -0.26357463 0.15433536
000280 fc 4e 90 bd dd 72 a3 3e d5 b3 d4 bc 79 91 41 be
       -0.07046315 0.3192357 -0.025964657 -0.1890315
000290 b1 f0 21 be cf 36 8f 3e bf 4f 5a be f8 63 98 be
       -0.15814473 0.27971503 -0.21319483 -0.2976377
0002a0 2d 24 58 3e 68 7d 66 be ad f3 84 3e e9 94 e1 bd
       0.2110755 -0.22508776 0.2596716 -0.110147305
0002b0 7d 59 51 be 71 e1 c3 3d c1 fe 23 3f d9 29 e1 3e
       -0.20444293 0.09564484 0.640606 0.4397724
0002c0 a6 f4 7e 3d 1a 2b cb 3d 17 e2 87 3d 4d c0 00 be
       0.062245034 0.0992033 0.0663492 -0.12573357
0002d0 fb d8 81 3e d5 e2 70 3e 8d eb 89 be 91 17 b4 3d
       0.25360855 0.2352403 -0.26937523 0.087935574
0002e0 41 e6 6f be 92 83 89 3e 59 6d 13 be 75 c3 7c 3e
       -0.23427679 0.26858193 -0.14397182 0.24683936
0002f0 82 57 9d 3e ef ba 74 be 2b b9 c6 3e d3 f3 7c be
       0.30730826 -0.23899435 0.38813147 -0.24702387
000300 9d 0d b5 3e c6 85 ce be 67 a3 00 3e 49 f3 4b 3e
       0.3536195 -0.40336436 0.12562333 0.19917025
000310 4f b0 27 be 88 70 ce 3e 84 cc 5a 3e f8 6e 3d be
       -0.1637585 0.4032023 0.21367079 -0.18499362
000320 8d 6d bb be 5b 4c a6 3e 7f 9c d9 3e ad 4e 22 3e
       -0.36607018 0.3248013 0.4250221 0.15850325
000330 22 4c 60 be 49 68 84 be 42 bb 16 3e 6d 8a 9e 3d
       -0.21904042 -0.25860813 0.1471987 0.07741246
000340 1c 96 6b 3e 11 38 10 3e 89 d9 54 3e ae 71 29 be
       0.23006481 0.14083888 0.20786108 -0.16547272
000350 de a0 ed bd 8f c5 a5 be d3 75 be be 6d d3 63 3e
       -0.116029486 -0.32377288 -0.37199268 0.22248621
000360 6d d4 2c 3e d2 2d 2e 3e f6 2c 7e 3e c8 59 6f 3e
       0.16877909 0.17009667 0.24821839 0.23374093
000370 f6 0c 8b be 1a 88 97 3c 71 4d 88 be 72 ec 74 3e
       -0.27158326 0.018497515 -0.26621583 0.23918322
000380 e1 7f 33 bd d0 20 61 3e bf e1 7b be e2 98 39 be
       -0.043823127 0.21985173 -0.24597834 -0.18124726
000390 e3 b7 81 be fc 44 d8 3e 5d 37 3d be 5f 55 22 be
       -0.25335607 0.4224013 -0.1847815 -0.15852879
0003a0 03 e1 6c 3e 64 76 36 be 0a f9 cf 3d 46 b1 84 be
       0.2313271 -0.178186 0.10154922 -0.259165
0003b0 3d 8c e8 bd a9 d4 70 3d 6b 3b 29 3f 36 58 d9 3e
       -0.11354873 0.05879656 0.6610629 0.42450112
0003c0 a3 77 8a 3e 65 af 04 3e c3 6c 80 3e de e4 fd bc
       0.270444 0.12957533 0.2508298 -0.030992921
0003d0 bd 05 8f 3e ca ea 22 3e b9 09 00 be 9f bc 7e 3e
       0.27934065 0.15909877 -0.12503709 0.2487664
0003e0 41 05 33 be e7 13 8b 3d 2f 9d 49 be e2 97 89 3e
       -0.17482473 0.067909054 -0.19688867 0.2687369
0003f0 d2 07 f5 3e b1 23 ee bd eb ab cd 3e 74 87 71 be
       0.4785753 -0.11627901 0.40170226 -0.23586828

fc2.bias f4 [5]
000000 6a 05 00 bd 7f a1 e1 bd c9 52 eb bd 24 a8 29 be
       -0.031255163 -0.11017131 -0.114903994 -0.16568047
000010 d3 d9 7a be
       -0.24497156
